{
  "nodes": [
    {
      "op": "null", 
      "name": "data", 
      "inputs": []
    }, 
    {
      "op": "null", 
      "name": "resnest_conv0_weight", 
      "attrs": {
        "__dtype__": "0", 
        "__lr_mult__": "1.0", 
        "__shape__": "(32, 3, 3, 3)", 
        "__storage_type__": "0", 
        "__wd_mult__": "1.0"
      }, 
      "inputs": []
    }, 
    {
      "op": "Convolution", 
      "name": "resnest_conv0_fwd", 
      "attrs": {
        "dilate": "(1, 1)", 
        "kernel": "(3, 3)", 
        "layout": "NCHW", 
        "no_bias": "True", 
        "num_filter": "32", 
        "num_group": "1", 
        "pad": "(1, 1)", 
        "stride": "(2, 2)"
      }, 
      "inputs": [[0, 0, 0], [1, 0, 0]]
    }, 
    {
      "op": "null", 
      "name": "resnest_batchnorm0_gamma", 
      "attrs": {
        "__dtype__": "0", 
        "__init__": "ones", 
        "__lr_mult__": "1.0", 
        "__shape__": "(32,)", 
        "__storage_type__": "0", 
        "__wd_mult__": "1.0"
      }, 
      "inputs": []
    }, 
    {
      "op": "null", 
      "name": "resnest_batchnorm0_beta", 
      "attrs": {
        "__dtype__": "0", 
        "__init__": "zeros", 
        "__lr_mult__": "1.0", 
        "__shape__": "(32,)", 
        "__storage_type__": "0", 
        "__wd_mult__": "1.0"
      }, 
      "inputs": []
    }, 
    {
      "op": "null", 
      "name": "resnest_batchnorm0_running_mean", 
      "attrs": {
        "__dtype__": "0", 
        "__init__": "zeros", 
        "__lr_mult__": "1.0", 
        "__shape__": "(32,)", 
        "__storage_type__": "0", 
        "__wd_mult__": "1.0"
      }, 
      "inputs": []
    }, 
    {
      "op": "null", 
      "name": "resnest_batchnorm0_running_var", 
      "attrs": {
        "__dtype__": "0", 
        "__init__": "ones", 
        "__lr_mult__": "1.0", 
        "__shape__": "(32,)", 
        "__storage_type__": "0", 
        "__wd_mult__": "1.0"
      }, 
      "inputs": []
    }, 
    {
      "op": "BatchNorm", 
      "name": "resnest_batchnorm0_fwd", 
      "attrs": {
        "axis": "1", 
        "eps": "1e-05", 
        "fix_gamma": "False", 
        "momentum": "0.9", 
        "use_global_stats": "False"
      }, 
      "inputs": [[2, 0, 0], [3, 0, 0], [4, 0, 0], [5, 0, 1], [6, 0, 1]]
    }, 
    {
      "op": "Activation", 
      "name": "resnest_relu0_fwd", 
      "attrs": {"act_type": "relu"}, 
      "inputs": [[7, 0, 0]]
    }, 
    {
      "op": "null", 
      "name": "resnest_conv1_weight", 
      "attrs": {
        "__dtype__": "0", 
        "__lr_mult__": "1.0", 
        "__shape__": "(32, 32, 3, 3)", 
        "__storage_type__": "0", 
        "__wd_mult__": "1.0"
      }, 
      "inputs": []
    }, 
    {
      "op": "Convolution", 
      "name": "resnest_conv1_fwd", 
      "attrs": {
        "dilate": "(1, 1)", 
        "kernel": "(3, 3)", 
        "layout": "NCHW", 
        "no_bias": "True", 
        "num_filter": "32", 
        "num_group": "1", 
        "pad": "(1, 1)", 
        "stride": "(1, 1)"
      }, 
      "inputs": [[8, 0, 0], [9, 0, 0]]
    }, 
    {
      "op": "null", 
      "name": "resnest_batchnorm1_gamma", 
      "attrs": {
        "__dtype__": "0", 
        "__init__": "ones", 
        "__lr_mult__": "1.0", 
        "__shape__": "(32,)", 
        "__storage_type__": "0", 
        "__wd_mult__": "1.0"
      }, 
      "inputs": []
    }, 
    {
      "op": "null", 
      "name": "resnest_batchnorm1_beta", 
      "attrs": {
        "__dtype__": "0", 
        "__init__": "zeros", 
        "__lr_mult__": "1.0", 
        "__shape__": "(32,)", 
        "__storage_type__": "0", 
        "__wd_mult__": "1.0"
      }, 
      "inputs": []
    }, 
    {
      "op": "null", 
      "name": "resnest_batchnorm1_running_mean", 
      "attrs": {
        "__dtype__": "0", 
        "__init__": "zeros", 
        "__lr_mult__": "1.0", 
        "__shape__": "(32,)", 
        "__storage_type__": "0", 
        "__wd_mult__": "1.0"
      }, 
      "inputs": []
    }, 
    {
      "op": "null", 
      "name": "resnest_batchnorm1_running_var", 
      "attrs": {
        "__dtype__": "0", 
        "__init__": "ones", 
        "__lr_mult__": "1.0", 
        "__shape__": "(32,)", 
        "__storage_type__": "0", 
        "__wd_mult__": "1.0"
      }, 
      "inputs": []
    }, 
    {
      "op": "BatchNorm", 
      "name": "resnest_batchnorm1_fwd", 
      "attrs": {
        "axis": "1", 
        "eps": "1e-05", 
        "fix_gamma": "False", 
        "momentum": "0.9", 
        "use_global_stats": "False"
      }, 
      "inputs": [[10, 0, 0], [11, 0, 0], [12, 0, 0], [13, 0, 1], [14, 0, 1]]
    }, 
    {
      "op": "Activation", 
      "name": "resnest_relu1_fwd", 
      "attrs": {"act_type": "relu"}, 
      "inputs": [[15, 0, 0]]
    }, 
    {
      "op": "null", 
      "name": "resnest_conv2_weight", 
      "attrs": {
        "__dtype__": "0", 
        "__lr_mult__": "1.0", 
        "__shape__": "(64, 32, 3, 3)", 
        "__storage_type__": "0", 
        "__wd_mult__": "1.0"
      }, 
      "inputs": []
    }, 
    {
      "op": "Convolution", 
      "name": "resnest_conv2_fwd", 
      "attrs": {
        "dilate": "(1, 1)", 
        "kernel": "(3, 3)", 
        "layout": "NCHW", 
        "no_bias": "True", 
        "num_filter": "64", 
        "num_group": "1", 
        "pad": "(1, 1)", 
        "stride": "(1, 1)"
      }, 
      "inputs": [[16, 0, 0], [17, 0, 0]]
    }, 
    {
      "op": "null", 
      "name": "resnest_batchnorm2_gamma", 
      "attrs": {
        "__dtype__": "0", 
        "__init__": "ones", 
        "__lr_mult__": "1.0", 
        "__shape__": "(64,)", 
        "__storage_type__": "0", 
        "__wd_mult__": "1.0"
      }, 
      "inputs": []
    }, 
    {
      "op": "null", 
      "name": "resnest_batchnorm2_beta", 
      "attrs": {
        "__dtype__": "0", 
        "__init__": "zeros", 
        "__lr_mult__": "1.0", 
        "__shape__": "(64,)", 
        "__storage_type__": "0", 
        "__wd_mult__": "1.0"
      }, 
      "inputs": []
    }, 
    {
      "op": "null", 
      "name": "resnest_batchnorm2_running_mean", 
      "attrs": {
        "__dtype__": "0", 
        "__init__": "zeros", 
        "__lr_mult__": "1.0", 
        "__shape__": "(64,)", 
        "__storage_type__": "0", 
        "__wd_mult__": "1.0"
      }, 
      "inputs": []
    }, 
    {
      "op": "null", 
      "name": "resnest_batchnorm2_running_var", 
      "attrs": {
        "__dtype__": "0", 
        "__init__": "ones", 
        "__lr_mult__": "1.0", 
        "__shape__": "(64,)", 
        "__storage_type__": "0", 
        "__wd_mult__": "1.0"
      }, 
      "inputs": []
    }, 
    {
      "op": "BatchNorm", 
      "name": "resnest_batchnorm2_fwd", 
      "attrs": {
        "axis": "1", 
        "eps": "1e-05", 
        "fix_gamma": "False", 
        "momentum": "0.9", 
        "use_global_stats": "False"
      }, 
      "inputs": [[18, 0, 0], [19, 0, 0], [20, 0, 0], [21, 0, 1], [22, 0, 1]]
    }, 
    {
      "op": "Activation", 
      "name": "resnest_relu2_fwd", 
      "attrs": {"act_type": "relu"}, 
      "inputs": [[23, 0, 0]]
    }, 
    {
      "op": "Pooling", 
      "name": "resnest_pool0_fwd", 
      "attrs": {
        "global_pool": "False", 
        "kernel": "(3, 3)", 
        "layout": "NCHW", 
        "pad": "(1, 1)", 
        "pool_type": "max", 
        "pooling_convention": "valid", 
        "stride": "(2, 2)"
      }, 
      "inputs": [[24, 0, 0]]
    }, 
    {
      "op": "null", 
      "name": "resnest_layers1_conv0_weight", 
      "attrs": {
        "__dtype__": "0", 
        "__lr_mult__": "1.0", 
        "__shape__": "(64, 64, 1, 1)", 
        "__storage_type__": "0", 
        "__wd_mult__": "1.0"
      }, 
      "inputs": []
    }, 
    {
      "op": "Convolution", 
      "name": "resnest_layers1_conv0_fwd", 
      "attrs": {
        "dilate": "(1, 1)", 
        "kernel": "(1, 1)", 
        "layout": "NCHW", 
        "no_bias": "True", 
        "num_filter": "64", 
        "num_group": "1", 
        "pad": "(0, 0)", 
        "stride": "(1, 1)"
      }, 
      "inputs": [[25, 0, 0], [26, 0, 0]]
    }, 
    {
      "op": "null", 
      "name": "resnest_layers1_batchnorm0_gamma", 
      "attrs": {
        "__dtype__": "0", 
        "__init__": "ones", 
        "__lr_mult__": "1.0", 
        "__shape__": "(64,)", 
        "__storage_type__": "0", 
        "__wd_mult__": "1.0"
      }, 
      "inputs": []
    }, 
    {
      "op": "null", 
      "name": "resnest_layers1_batchnorm0_beta", 
      "attrs": {
        "__dtype__": "0", 
        "__init__": "zeros", 
        "__lr_mult__": "1.0", 
        "__shape__": "(64,)", 
        "__storage_type__": "0", 
        "__wd_mult__": "1.0"
      }, 
      "inputs": []
    }, 
    {
      "op": "null", 
      "name": "resnest_layers1_batchnorm0_running_mean", 
      "attrs": {
        "__dtype__": "0", 
        "__init__": "zeros", 
        "__lr_mult__": "1.0", 
        "__shape__": "(64,)", 
        "__storage_type__": "0", 
        "__wd_mult__": "1.0"
      }, 
      "inputs": []
    }, 
    {
      "op": "null", 
      "name": "resnest_layers1_batchnorm0_running_var", 
      "attrs": {
        "__dtype__": "0", 
        "__init__": "ones", 
        "__lr_mult__": "1.0", 
        "__shape__": "(64,)", 
        "__storage_type__": "0", 
        "__wd_mult__": "1.0"
      }, 
      "inputs": []
    }, 
    {
      "op": "BatchNorm", 
      "name": "resnest_layers1_batchnorm0_fwd", 
      "attrs": {
        "axis": "1", 
        "eps": "1e-05", 
        "fix_gamma": "False", 
        "momentum": "0.9", 
        "use_global_stats": "False"
      }, 
      "inputs": [[27, 0, 0], [28, 0, 0], [29, 0, 0], [30, 0, 1], [31, 0, 1]]
    }, 
    {
      "op": "Activation", 
      "name": "resnest_layers1_relu0_fwd", 
      "attrs": {"act_type": "relu"}, 
      "inputs": [[32, 0, 0]]
    }, 
    {
      "op": "null", 
      "name": "resnest_layers1_conv1_weight", 
      "attrs": {
        "__dtype__": "0", 
        "__lr_mult__": "1.0", 
        "__shape__": "(128, 32, 3, 3)", 
        "__storage_type__": "0", 
        "__wd_mult__": "1.0"
      }, 
      "inputs": []
    }, 
    {
      "op": "Convolution", 
      "name": "resnest_layers1_conv1_fwd", 
      "attrs": {
        "dilate": "(1, 1)", 
        "kernel": "(3, 3)", 
        "layout": "NCHW", 
        "no_bias": "True", 
        "num_filter": "128", 
        "num_group": "2", 
        "pad": "(1, 1)", 
        "stride": "(1, 1)"
      }, 
      "inputs": [[33, 0, 0], [34, 0, 0]]
    }, 
    {
      "op": "null", 
      "name": "resnest_layers1_batchnorm1_gamma", 
      "attrs": {
        "__dtype__": "0", 
        "__init__": "ones", 
        "__lr_mult__": "1.0", 
        "__shape__": "(128,)", 
        "__storage_type__": "0", 
        "__wd_mult__": "1.0"
      }, 
      "inputs": []
    }, 
    {
      "op": "null", 
      "name": "resnest_layers1_batchnorm1_beta", 
      "attrs": {
        "__dtype__": "0", 
        "__init__": "zeros", 
        "__lr_mult__": "1.0", 
        "__shape__": "(128,)", 
        "__storage_type__": "0", 
        "__wd_mult__": "1.0"
      }, 
      "inputs": []
    }, 
    {
      "op": "null", 
      "name": "resnest_layers1_batchnorm1_running_mean", 
      "attrs": {
        "__dtype__": "0", 
        "__init__": "zeros", 
        "__lr_mult__": "1.0", 
        "__shape__": "(128,)", 
        "__storage_type__": "0", 
        "__wd_mult__": "1.0"
      }, 
      "inputs": []
    }, 
    {
      "op": "null", 
      "name": "resnest_layers1_batchnorm1_running_var", 
      "attrs": {
        "__dtype__": "0", 
        "__init__": "ones", 
        "__lr_mult__": "1.0", 
        "__shape__": "(128,)", 
        "__storage_type__": "0", 
        "__wd_mult__": "1.0"
      }, 
      "inputs": []
    }, 
    {
      "op": "BatchNorm", 
      "name": "resnest_layers1_batchnorm1_fwd", 
      "attrs": {
        "axis": "1", 
        "eps": "1e-05", 
        "fix_gamma": "False", 
        "momentum": "0.9", 
        "use_global_stats": "False"
      }, 
      "inputs": [[35, 0, 0], [36, 0, 0], [37, 0, 0], [38, 0, 1], [39, 0, 1]]
    }, 
    {
      "op": "Activation", 
      "name": "resnest_layers1_relu1_fwd", 
      "attrs": {"act_type": "relu"}, 
      "inputs": [[40, 0, 0]]
    }, 
    {
      "op": "SliceChannel", 
      "name": "resnest_layers1_splitattentionconv0_split0", 
      "attrs": {
        "axis": "1", 
        "num_outputs": "2"
      }, 
      "inputs": [[41, 0, 0]]
    }, 
    {
      "op": "_plus_scalar", 
      "name": "resnest_layers1_splitattentionconv0__plusscalar0", 
      "attrs": {"scalar": "0"}, 
      "inputs": [[42, 0, 0]]
    }, 
    {
      "op": "elemwise_add", 
      "name": "resnest_layers1_splitattentionconv0__plus0", 
      "inputs": [[43, 0, 0], [42, 1, 0]]
    }, 
    {
      "op": "_contrib_AdaptiveAvgPooling2D", 
      "name": "resnest_layers1_splitattentionconv0_adaptiveavgpooling2d0", 
      "attrs": {"output_size": "1"}, 
      "inputs": [[44, 0, 0]]
    }, 
    {
      "op": "null", 
      "name": "resnest_layers1_conv2_weight", 
      "attrs": {
        "__dtype__": "0", 
        "__lr_mult__": "1.0", 
        "__shape__": "(32, 64, 1, 1)", 
        "__storage_type__": "0", 
        "__wd_mult__": "1.0"
      }, 
      "inputs": []
    }, 
    {
      "op": "null", 
      "name": "resnest_layers1_conv2_bias", 
      "attrs": {
        "__dtype__": "0", 
        "__init__": "zeros", 
        "__lr_mult__": "1.0", 
        "__shape__": "(32,)", 
        "__storage_type__": "0", 
        "__wd_mult__": "1.0"
      }, 
      "inputs": []
    }, 
    {
      "op": "Convolution", 
      "name": "resnest_layers1_conv2_fwd", 
      "attrs": {
        "dilate": "(1, 1)", 
        "kernel": "(1, 1)", 
        "layout": "NCHW", 
        "no_bias": "False", 
        "num_filter": "32", 
        "num_group": "1", 
        "pad": "(0, 0)", 
        "stride": "(1, 1)"
      }, 
      "inputs": [[45, 0, 0], [46, 0, 0], [47, 0, 0]]
    }, 
    {
      "op": "null", 
      "name": "resnest_layers1_batchnorm2_gamma", 
      "attrs": {
        "__dtype__": "0", 
        "__init__": "ones", 
        "__lr_mult__": "1.0", 
        "__shape__": "(32,)", 
        "__storage_type__": "0", 
        "__wd_mult__": "1.0"
      }, 
      "inputs": []
    }, 
    {
      "op": "null", 
      "name": "resnest_layers1_batchnorm2_beta", 
      "attrs": {
        "__dtype__": "0", 
        "__init__": "zeros", 
        "__lr_mult__": "1.0", 
        "__shape__": "(32,)", 
        "__storage_type__": "0", 
        "__wd_mult__": "1.0"
      }, 
      "inputs": []
    }, 
    {
      "op": "null", 
      "name": "resnest_layers1_batchnorm2_running_mean", 
      "attrs": {
        "__dtype__": "0", 
        "__init__": "zeros", 
        "__lr_mult__": "1.0", 
        "__shape__": "(32,)", 
        "__storage_type__": "0", 
        "__wd_mult__": "1.0"
      }, 
      "inputs": []
    }, 
    {
      "op": "null", 
      "name": "resnest_layers1_batchnorm2_running_var", 
      "attrs": {
        "__dtype__": "0", 
        "__init__": "ones", 
        "__lr_mult__": "1.0", 
        "__shape__": "(32,)", 
        "__storage_type__": "0", 
        "__wd_mult__": "1.0"
      }, 
      "inputs": []
    }, 
    {
      "op": "BatchNorm", 
      "name": "resnest_layers1_batchnorm2_fwd", 
      "attrs": {
        "axis": "1", 
        "eps": "1e-05", 
        "fix_gamma": "False", 
        "momentum": "0.9", 
        "use_global_stats": "False"
      }, 
      "inputs": [[48, 0, 0], [49, 0, 0], [50, 0, 0], [51, 0, 1], [52, 0, 1]]
    }, 
    {
      "op": "Activation", 
      "name": "resnest_layers1_relu2_fwd", 
      "attrs": {"act_type": "relu"}, 
      "inputs": [[53, 0, 0]]
    }, 
    {
      "op": "null", 
      "name": "resnest_layers1_conv3_weight", 
      "attrs": {
        "__dtype__": "0", 
        "__lr_mult__": "1.0", 
        "__shape__": "(128, 32, 1, 1)", 
        "__storage_type__": "0", 
        "__wd_mult__": "1.0"
      }, 
      "inputs": []
    }, 
    {
      "op": "null", 
      "name": "resnest_layers1_conv3_bias", 
      "attrs": {
        "__dtype__": "0", 
        "__init__": "zeros", 
        "__lr_mult__": "1.0", 
        "__shape__": "(128,)", 
        "__storage_type__": "0", 
        "__wd_mult__": "1.0"
      }, 
      "inputs": []
    }, 
    {
      "op": "Convolution", 
      "name": "resnest_layers1_conv3_fwd", 
      "attrs": {
        "dilate": "(1, 1)", 
        "kernel": "(1, 1)", 
        "layout": "NCHW", 
        "no_bias": "False", 
        "num_filter": "128", 
        "num_group": "1", 
        "pad": "(0, 0)", 
        "stride": "(1, 1)"
      }, 
      "inputs": [[54, 0, 0], [55, 0, 0], [56, 0, 0]]
    }, 
    {
      "op": "Reshape", 
      "name": "resnest_layers1_splitattentionconv0_reshape0", 
      "attrs": {"shape": "(0, 2, 64)"}, 
      "inputs": [[57, 0, 0]]
    }, 
    {
      "op": "softmax", 
      "name": "resnest_layers1_splitattentionconv0_softmax0", 
      "attrs": {"axis": "1"}, 
      "inputs": [[58, 0, 0]]
    }, 
    {
      "op": "Reshape", 
      "name": "resnest_layers1_splitattentionconv0_reshape1", 
      "attrs": {"shape": "(0, -1, 1, 1)"}, 
      "inputs": [[59, 0, 0]]
    }, 
    {
      "op": "SliceChannel", 
      "name": "resnest_layers1_splitattentionconv0_split1", 
      "attrs": {
        "axis": "1", 
        "num_outputs": "2"
      }, 
      "inputs": [[60, 0, 0]]
    }, 
    {
      "op": "broadcast_mul", 
      "name": "resnest_layers1_splitattentionconv0_broadcast_mul0", 
      "inputs": [[61, 0, 0], [42, 0, 0]]
    }, 
    {
      "op": "_plus_scalar", 
      "name": "resnest_layers1_splitattentionconv0__plusscalar1", 
      "attrs": {"scalar": "0"}, 
      "inputs": [[62, 0, 0]]
    }, 
    {
      "op": "broadcast_mul", 
      "name": "resnest_layers1_splitattentionconv0_broadcast_mul1", 
      "inputs": [[61, 1, 0], [42, 1, 0]]
    }, 
    {
      "op": "elemwise_add", 
      "name": "resnest_layers1_splitattentionconv0__plus1", 
      "inputs": [[63, 0, 0], [64, 0, 0]]
    }, 
    {
      "op": "null", 
      "name": "resnest_layers1_conv4_weight", 
      "attrs": {
        "__dtype__": "0", 
        "__lr_mult__": "1.0", 
        "__shape__": "(256, 64, 1, 1)", 
        "__storage_type__": "0", 
        "__wd_mult__": "1.0"
      }, 
      "inputs": []
    }, 
    {
      "op": "Convolution", 
      "name": "resnest_layers1_conv4_fwd", 
      "attrs": {
        "dilate": "(1, 1)", 
        "kernel": "(1, 1)", 
        "layout": "NCHW", 
        "no_bias": "True", 
        "num_filter": "256", 
        "num_group": "1", 
        "pad": "(0, 0)", 
        "stride": "(1, 1)"
      }, 
      "inputs": [[65, 0, 0], [66, 0, 0]]
    }, 
    {
      "op": "null", 
      "name": "resnest_layers1_batchnorm3_gamma", 
      "attrs": {
        "__dtype__": "0", 
        "__init__": "ones", 
        "__lr_mult__": "1.0", 
        "__shape__": "(256,)", 
        "__storage_type__": "0", 
        "__wd_mult__": "1.0"
      }, 
      "inputs": []
    }, 
    {
      "op": "null", 
      "name": "resnest_layers1_batchnorm3_beta", 
      "attrs": {
        "__dtype__": "0", 
        "__init__": "zeros", 
        "__lr_mult__": "1.0", 
        "__shape__": "(256,)", 
        "__storage_type__": "0", 
        "__wd_mult__": "1.0"
      }, 
      "inputs": []
    }, 
    {
      "op": "null", 
      "name": "resnest_layers1_batchnorm3_running_mean", 
      "attrs": {
        "__dtype__": "0", 
        "__init__": "zeros", 
        "__lr_mult__": "1.0", 
        "__shape__": "(256,)", 
        "__storage_type__": "0", 
        "__wd_mult__": "1.0"
      }, 
      "inputs": []
    }, 
    {
      "op": "null", 
      "name": "resnest_layers1_batchnorm3_running_var", 
      "attrs": {
        "__dtype__": "0", 
        "__init__": "ones", 
        "__lr_mult__": "1.0", 
        "__shape__": "(256,)", 
        "__storage_type__": "0", 
        "__wd_mult__": "1.0"
      }, 
      "inputs": []
    }, 
    {
      "op": "BatchNorm", 
      "name": "resnest_layers1_batchnorm3_fwd", 
      "attrs": {
        "axis": "1", 
        "eps": "1e-05", 
        "fix_gamma": "False", 
        "momentum": "0.9", 
        "use_global_stats": "False"
      }, 
      "inputs": [[67, 0, 0], [68, 0, 0], [69, 0, 0], [70, 0, 1], [71, 0, 1]]
    }, 
    {
      "op": "Pooling", 
      "name": "resnest_down1_pool0_fwd", 
      "attrs": {
        "count_include_pad": "False", 
        "global_pool": "False", 
        "kernel": "(1, 1)", 
        "layout": "NCHW", 
        "pad": "(0, 0)", 
        "pool_type": "avg", 
        "pooling_convention": "full", 
        "stride": "(1, 1)"
      }, 
      "inputs": [[25, 0, 0]]
    }, 
    {
      "op": "null", 
      "name": "resnest_down1_conv0_weight", 
      "attrs": {
        "__dtype__": "0", 
        "__lr_mult__": "1.0", 
        "__shape__": "(256, 64, 1, 1)", 
        "__storage_type__": "0", 
        "__wd_mult__": "1.0"
      }, 
      "inputs": []
    }, 
    {
      "op": "Convolution", 
      "name": "resnest_down1_conv0_fwd", 
      "attrs": {
        "dilate": "(1, 1)", 
        "kernel": "(1, 1)", 
        "layout": "NCHW", 
        "no_bias": "True", 
        "num_filter": "256", 
        "num_group": "1", 
        "pad": "(0, 0)", 
        "stride": "(1, 1)"
      }, 
      "inputs": [[73, 0, 0], [74, 0, 0]]
    }, 
    {
      "op": "null", 
      "name": "resnest_down1_batchnorm0_gamma", 
      "attrs": {
        "__dtype__": "0", 
        "__init__": "ones", 
        "__lr_mult__": "1.0", 
        "__shape__": "(256,)", 
        "__storage_type__": "0", 
        "__wd_mult__": "1.0"
      }, 
      "inputs": []
    }, 
    {
      "op": "null", 
      "name": "resnest_down1_batchnorm0_beta", 
      "attrs": {
        "__dtype__": "0", 
        "__init__": "zeros", 
        "__lr_mult__": "1.0", 
        "__shape__": "(256,)", 
        "__storage_type__": "0", 
        "__wd_mult__": "1.0"
      }, 
      "inputs": []
    }, 
    {
      "op": "null", 
      "name": "resnest_down1_batchnorm0_running_mean", 
      "attrs": {
        "__dtype__": "0", 
        "__init__": "zeros", 
        "__lr_mult__": "1.0", 
        "__shape__": "(256,)", 
        "__storage_type__": "0", 
        "__wd_mult__": "1.0"
      }, 
      "inputs": []
    }, 
    {
      "op": "null", 
      "name": "resnest_down1_batchnorm0_running_var", 
      "attrs": {
        "__dtype__": "0", 
        "__init__": "ones", 
        "__lr_mult__": "1.0", 
        "__shape__": "(256,)", 
        "__storage_type__": "0", 
        "__wd_mult__": "1.0"
      }, 
      "inputs": []
    }, 
    {
      "op": "BatchNorm", 
      "name": "resnest_down1_batchnorm0_fwd", 
      "attrs": {
        "axis": "1", 
        "eps": "1e-05", 
        "fix_gamma": "False", 
        "momentum": "0.9", 
        "use_global_stats": "False"
      }, 
      "inputs": [[75, 0, 0], [76, 0, 0], [77, 0, 0], [78, 0, 1], [79, 0, 1]]
    }, 
    {
      "op": "elemwise_add", 
      "name": "resnest_layers1_bottleneck0__plus0", 
      "inputs": [[72, 0, 0], [80, 0, 0]]
    }, 
    {
      "op": "Activation", 
      "name": "resnest_layers1_relu3_fwd", 
      "attrs": {"act_type": "relu"}, 
      "inputs": [[81, 0, 0]]
    }, 
    {
      "op": "null", 
      "name": "resnest_layers1_conv5_weight", 
      "attrs": {
        "__dtype__": "0", 
        "__lr_mult__": "1.0", 
        "__shape__": "(64, 256, 1, 1)", 
        "__storage_type__": "0", 
        "__wd_mult__": "1.0"
      }, 
      "inputs": []
    }, 
    {
      "op": "Convolution", 
      "name": "resnest_layers1_conv5_fwd", 
      "attrs": {
        "dilate": "(1, 1)", 
        "kernel": "(1, 1)", 
        "layout": "NCHW", 
        "no_bias": "True", 
        "num_filter": "64", 
        "num_group": "1", 
        "pad": "(0, 0)", 
        "stride": "(1, 1)"
      }, 
      "inputs": [[82, 0, 0], [83, 0, 0]]
    }, 
    {
      "op": "null", 
      "name": "resnest_layers1_batchnorm4_gamma", 
      "attrs": {
        "__dtype__": "0", 
        "__init__": "ones", 
        "__lr_mult__": "1.0", 
        "__shape__": "(64,)", 
        "__storage_type__": "0", 
        "__wd_mult__": "1.0"
      }, 
      "inputs": []
    }, 
    {
      "op": "null", 
      "name": "resnest_layers1_batchnorm4_beta", 
      "attrs": {
        "__dtype__": "0", 
        "__init__": "zeros", 
        "__lr_mult__": "1.0", 
        "__shape__": "(64,)", 
        "__storage_type__": "0", 
        "__wd_mult__": "1.0"
      }, 
      "inputs": []
    }, 
    {
      "op": "null", 
      "name": "resnest_layers1_batchnorm4_running_mean", 
      "attrs": {
        "__dtype__": "0", 
        "__init__": "zeros", 
        "__lr_mult__": "1.0", 
        "__shape__": "(64,)", 
        "__storage_type__": "0", 
        "__wd_mult__": "1.0"
      }, 
      "inputs": []
    }, 
    {
      "op": "null", 
      "name": "resnest_layers1_batchnorm4_running_var", 
      "attrs": {
        "__dtype__": "0", 
        "__init__": "ones", 
        "__lr_mult__": "1.0", 
        "__shape__": "(64,)", 
        "__storage_type__": "0", 
        "__wd_mult__": "1.0"
      }, 
      "inputs": []
    }, 
    {
      "op": "BatchNorm", 
      "name": "resnest_layers1_batchnorm4_fwd", 
      "attrs": {
        "axis": "1", 
        "eps": "1e-05", 
        "fix_gamma": "False", 
        "momentum": "0.9", 
        "use_global_stats": "False"
      }, 
      "inputs": [[84, 0, 0], [85, 0, 0], [86, 0, 0], [87, 0, 1], [88, 0, 1]]
    }, 
    {
      "op": "Activation", 
      "name": "resnest_layers1_relu4_fwd", 
      "attrs": {"act_type": "relu"}, 
      "inputs": [[89, 0, 0]]
    }, 
    {
      "op": "null", 
      "name": "resnest_layers1_conv6_weight", 
      "attrs": {
        "__dtype__": "0", 
        "__lr_mult__": "1.0", 
        "__shape__": "(128, 32, 3, 3)", 
        "__storage_type__": "0", 
        "__wd_mult__": "1.0"
      }, 
      "inputs": []
    }, 
    {
      "op": "Convolution", 
      "name": "resnest_layers1_conv6_fwd", 
      "attrs": {
        "dilate": "(1, 1)", 
        "kernel": "(3, 3)", 
        "layout": "NCHW", 
        "no_bias": "True", 
        "num_filter": "128", 
        "num_group": "2", 
        "pad": "(1, 1)", 
        "stride": "(1, 1)"
      }, 
      "inputs": [[90, 0, 0], [91, 0, 0]]
    }, 
    {
      "op": "null", 
      "name": "resnest_layers1_batchnorm5_gamma", 
      "attrs": {
        "__dtype__": "0", 
        "__init__": "ones", 
        "__lr_mult__": "1.0", 
        "__shape__": "(128,)", 
        "__storage_type__": "0", 
        "__wd_mult__": "1.0"
      }, 
      "inputs": []
    }, 
    {
      "op": "null", 
      "name": "resnest_layers1_batchnorm5_beta", 
      "attrs": {
        "__dtype__": "0", 
        "__init__": "zeros", 
        "__lr_mult__": "1.0", 
        "__shape__": "(128,)", 
        "__storage_type__": "0", 
        "__wd_mult__": "1.0"
      }, 
      "inputs": []
    }, 
    {
      "op": "null", 
      "name": "resnest_layers1_batchnorm5_running_mean", 
      "attrs": {
        "__dtype__": "0", 
        "__init__": "zeros", 
        "__lr_mult__": "1.0", 
        "__shape__": "(128,)", 
        "__storage_type__": "0", 
        "__wd_mult__": "1.0"
      }, 
      "inputs": []
    }, 
    {
      "op": "null", 
      "name": "resnest_layers1_batchnorm5_running_var", 
      "attrs": {
        "__dtype__": "0", 
        "__init__": "ones", 
        "__lr_mult__": "1.0", 
        "__shape__": "(128,)", 
        "__storage_type__": "0", 
        "__wd_mult__": "1.0"
      }, 
      "inputs": []
    }, 
    {
      "op": "BatchNorm", 
      "name": "resnest_layers1_batchnorm5_fwd", 
      "attrs": {
        "axis": "1", 
        "eps": "1e-05", 
        "fix_gamma": "False", 
        "momentum": "0.9", 
        "use_global_stats": "False"
      }, 
      "inputs": [[92, 0, 0], [93, 0, 0], [94, 0, 0], [95, 0, 1], [96, 0, 1]]
    }, 
    {
      "op": "Activation", 
      "name": "resnest_layers1_relu5_fwd", 
      "attrs": {"act_type": "relu"}, 
      "inputs": [[97, 0, 0]]
    }, 
    {
      "op": "SliceChannel", 
      "name": "resnest_layers1_splitattentionconv1_split0", 
      "attrs": {
        "axis": "1", 
        "num_outputs": "2"
      }, 
      "inputs": [[98, 0, 0]]
    }, 
    {
      "op": "_plus_scalar", 
      "name": "resnest_layers1_splitattentionconv1__plusscalar0", 
      "attrs": {"scalar": "0"}, 
      "inputs": [[99, 0, 0]]
    }, 
    {
      "op": "elemwise_add", 
      "name": "resnest_layers1_splitattentionconv1__plus0", 
      "inputs": [[100, 0, 0], [99, 1, 0]]
    }, 
    {
      "op": "_contrib_AdaptiveAvgPooling2D", 
      "name": "resnest_layers1_splitattentionconv1_adaptiveavgpooling2d0", 
      "attrs": {"output_size": "1"}, 
      "inputs": [[101, 0, 0]]
    }, 
    {
      "op": "null", 
      "name": "resnest_layers1_conv7_weight", 
      "attrs": {
        "__dtype__": "0", 
        "__lr_mult__": "1.0", 
        "__shape__": "(32, 64, 1, 1)", 
        "__storage_type__": "0", 
        "__wd_mult__": "1.0"
      }, 
      "inputs": []
    }, 
    {
      "op": "null", 
      "name": "resnest_layers1_conv7_bias", 
      "attrs": {
        "__dtype__": "0", 
        "__init__": "zeros", 
        "__lr_mult__": "1.0", 
        "__shape__": "(32,)", 
        "__storage_type__": "0", 
        "__wd_mult__": "1.0"
      }, 
      "inputs": []
    }, 
    {
      "op": "Convolution", 
      "name": "resnest_layers1_conv7_fwd", 
      "attrs": {
        "dilate": "(1, 1)", 
        "kernel": "(1, 1)", 
        "layout": "NCHW", 
        "no_bias": "False", 
        "num_filter": "32", 
        "num_group": "1", 
        "pad": "(0, 0)", 
        "stride": "(1, 1)"
      }, 
      "inputs": [[102, 0, 0], [103, 0, 0], [104, 0, 0]]
    }, 
    {
      "op": "null", 
      "name": "resnest_layers1_batchnorm6_gamma", 
      "attrs": {
        "__dtype__": "0", 
        "__init__": "ones", 
        "__lr_mult__": "1.0", 
        "__shape__": "(32,)", 
        "__storage_type__": "0", 
        "__wd_mult__": "1.0"
      }, 
      "inputs": []
    }, 
    {
      "op": "null", 
      "name": "resnest_layers1_batchnorm6_beta", 
      "attrs": {
        "__dtype__": "0", 
        "__init__": "zeros", 
        "__lr_mult__": "1.0", 
        "__shape__": "(32,)", 
        "__storage_type__": "0", 
        "__wd_mult__": "1.0"
      }, 
      "inputs": []
    }, 
    {
      "op": "null", 
      "name": "resnest_layers1_batchnorm6_running_mean", 
      "attrs": {
        "__dtype__": "0", 
        "__init__": "zeros", 
        "__lr_mult__": "1.0", 
        "__shape__": "(32,)", 
        "__storage_type__": "0", 
        "__wd_mult__": "1.0"
      }, 
      "inputs": []
    }, 
    {
      "op": "null", 
      "name": "resnest_layers1_batchnorm6_running_var", 
      "attrs": {
        "__dtype__": "0", 
        "__init__": "ones", 
        "__lr_mult__": "1.0", 
        "__shape__": "(32,)", 
        "__storage_type__": "0", 
        "__wd_mult__": "1.0"
      }, 
      "inputs": []
    }, 
    {
      "op": "BatchNorm", 
      "name": "resnest_layers1_batchnorm6_fwd", 
      "attrs": {
        "axis": "1", 
        "eps": "1e-05", 
        "fix_gamma": "False", 
        "momentum": "0.9", 
        "use_global_stats": "False"
      }, 
      "inputs": [[105, 0, 0], [106, 0, 0], [107, 0, 0], [108, 0, 1], [109, 0, 1]]
    }, 
    {
      "op": "Activation", 
      "name": "resnest_layers1_relu6_fwd", 
      "attrs": {"act_type": "relu"}, 
      "inputs": [[110, 0, 0]]
    }, 
    {
      "op": "null", 
      "name": "resnest_layers1_conv8_weight", 
      "attrs": {
        "__dtype__": "0", 
        "__lr_mult__": "1.0", 
        "__shape__": "(128, 32, 1, 1)", 
        "__storage_type__": "0", 
        "__wd_mult__": "1.0"
      }, 
      "inputs": []
    }, 
    {
      "op": "null", 
      "name": "resnest_layers1_conv8_bias", 
      "attrs": {
        "__dtype__": "0", 
        "__init__": "zeros", 
        "__lr_mult__": "1.0", 
        "__shape__": "(128,)", 
        "__storage_type__": "0", 
        "__wd_mult__": "1.0"
      }, 
      "inputs": []
    }, 
    {
      "op": "Convolution", 
      "name": "resnest_layers1_conv8_fwd", 
      "attrs": {
        "dilate": "(1, 1)", 
        "kernel": "(1, 1)", 
        "layout": "NCHW", 
        "no_bias": "False", 
        "num_filter": "128", 
        "num_group": "1", 
        "pad": "(0, 0)", 
        "stride": "(1, 1)"
      }, 
      "inputs": [[111, 0, 0], [112, 0, 0], [113, 0, 0]]
    }, 
    {
      "op": "Reshape", 
      "name": "resnest_layers1_splitattentionconv1_reshape0", 
      "attrs": {"shape": "(0, 2, 64)"}, 
      "inputs": [[114, 0, 0]]
    }, 
    {
      "op": "softmax", 
      "name": "resnest_layers1_splitattentionconv1_softmax0", 
      "attrs": {"axis": "1"}, 
      "inputs": [[115, 0, 0]]
    }, 
    {
      "op": "Reshape", 
      "name": "resnest_layers1_splitattentionconv1_reshape1", 
      "attrs": {"shape": "(0, -1, 1, 1)"}, 
      "inputs": [[116, 0, 0]]
    }, 
    {
      "op": "SliceChannel", 
      "name": "resnest_layers1_splitattentionconv1_split1", 
      "attrs": {
        "axis": "1", 
        "num_outputs": "2"
      }, 
      "inputs": [[117, 0, 0]]
    }, 
    {
      "op": "broadcast_mul", 
      "name": "resnest_layers1_splitattentionconv1_broadcast_mul0", 
      "inputs": [[118, 0, 0], [99, 0, 0]]
    }, 
    {
      "op": "_plus_scalar", 
      "name": "resnest_layers1_splitattentionconv1__plusscalar1", 
      "attrs": {"scalar": "0"}, 
      "inputs": [[119, 0, 0]]
    }, 
    {
      "op": "broadcast_mul", 
      "name": "resnest_layers1_splitattentionconv1_broadcast_mul1", 
      "inputs": [[118, 1, 0], [99, 1, 0]]
    }, 
    {
      "op": "elemwise_add", 
      "name": "resnest_layers1_splitattentionconv1__plus1", 
      "inputs": [[120, 0, 0], [121, 0, 0]]
    }, 
    {
      "op": "null", 
      "name": "resnest_layers1_conv9_weight", 
      "attrs": {
        "__dtype__": "0", 
        "__lr_mult__": "1.0", 
        "__shape__": "(256, 64, 1, 1)", 
        "__storage_type__": "0", 
        "__wd_mult__": "1.0"
      }, 
      "inputs": []
    }, 
    {
      "op": "Convolution", 
      "name": "resnest_layers1_conv9_fwd", 
      "attrs": {
        "dilate": "(1, 1)", 
        "kernel": "(1, 1)", 
        "layout": "NCHW", 
        "no_bias": "True", 
        "num_filter": "256", 
        "num_group": "1", 
        "pad": "(0, 0)", 
        "stride": "(1, 1)"
      }, 
      "inputs": [[122, 0, 0], [123, 0, 0]]
    }, 
    {
      "op": "null", 
      "name": "resnest_layers1_batchnorm7_gamma", 
      "attrs": {
        "__dtype__": "0", 
        "__init__": "ones", 
        "__lr_mult__": "1.0", 
        "__shape__": "(256,)", 
        "__storage_type__": "0", 
        "__wd_mult__": "1.0"
      }, 
      "inputs": []
    }, 
    {
      "op": "null", 
      "name": "resnest_layers1_batchnorm7_beta", 
      "attrs": {
        "__dtype__": "0", 
        "__init__": "zeros", 
        "__lr_mult__": "1.0", 
        "__shape__": "(256,)", 
        "__storage_type__": "0", 
        "__wd_mult__": "1.0"
      }, 
      "inputs": []
    }, 
    {
      "op": "null", 
      "name": "resnest_layers1_batchnorm7_running_mean", 
      "attrs": {
        "__dtype__": "0", 
        "__init__": "zeros", 
        "__lr_mult__": "1.0", 
        "__shape__": "(256,)", 
        "__storage_type__": "0", 
        "__wd_mult__": "1.0"
      }, 
      "inputs": []
    }, 
    {
      "op": "null", 
      "name": "resnest_layers1_batchnorm7_running_var", 
      "attrs": {
        "__dtype__": "0", 
        "__init__": "ones", 
        "__lr_mult__": "1.0", 
        "__shape__": "(256,)", 
        "__storage_type__": "0", 
        "__wd_mult__": "1.0"
      }, 
      "inputs": []
    }, 
    {
      "op": "BatchNorm", 
      "name": "resnest_layers1_batchnorm7_fwd", 
      "attrs": {
        "axis": "1", 
        "eps": "1e-05", 
        "fix_gamma": "False", 
        "momentum": "0.9", 
        "use_global_stats": "False"
      }, 
      "inputs": [[124, 0, 0], [125, 0, 0], [126, 0, 0], [127, 0, 1], [128, 0, 1]]
    }, 
    {
      "op": "elemwise_add", 
      "name": "resnest_layers1_bottleneck1__plus0", 
      "inputs": [[129, 0, 0], [82, 0, 0]]
    }, 
    {
      "op": "Activation", 
      "name": "resnest_layers1_relu7_fwd", 
      "attrs": {"act_type": "relu"}, 
      "inputs": [[130, 0, 0]]
    }, 
    {
      "op": "null", 
      "name": "resnest_layers1_conv10_weight", 
      "attrs": {
        "__dtype__": "0", 
        "__lr_mult__": "1.0", 
        "__shape__": "(64, 256, 1, 1)", 
        "__storage_type__": "0", 
        "__wd_mult__": "1.0"
      }, 
      "inputs": []
    }, 
    {
      "op": "Convolution", 
      "name": "resnest_layers1_conv10_fwd", 
      "attrs": {
        "dilate": "(1, 1)", 
        "kernel": "(1, 1)", 
        "layout": "NCHW", 
        "no_bias": "True", 
        "num_filter": "64", 
        "num_group": "1", 
        "pad": "(0, 0)", 
        "stride": "(1, 1)"
      }, 
      "inputs": [[131, 0, 0], [132, 0, 0]]
    }, 
    {
      "op": "null", 
      "name": "resnest_layers1_batchnorm8_gamma", 
      "attrs": {
        "__dtype__": "0", 
        "__init__": "ones", 
        "__lr_mult__": "1.0", 
        "__shape__": "(64,)", 
        "__storage_type__": "0", 
        "__wd_mult__": "1.0"
      }, 
      "inputs": []
    }, 
    {
      "op": "null", 
      "name": "resnest_layers1_batchnorm8_beta", 
      "attrs": {
        "__dtype__": "0", 
        "__init__": "zeros", 
        "__lr_mult__": "1.0", 
        "__shape__": "(64,)", 
        "__storage_type__": "0", 
        "__wd_mult__": "1.0"
      }, 
      "inputs": []
    }, 
    {
      "op": "null", 
      "name": "resnest_layers1_batchnorm8_running_mean", 
      "attrs": {
        "__dtype__": "0", 
        "__init__": "zeros", 
        "__lr_mult__": "1.0", 
        "__shape__": "(64,)", 
        "__storage_type__": "0", 
        "__wd_mult__": "1.0"
      }, 
      "inputs": []
    }, 
    {
      "op": "null", 
      "name": "resnest_layers1_batchnorm8_running_var", 
      "attrs": {
        "__dtype__": "0", 
        "__init__": "ones", 
        "__lr_mult__": "1.0", 
        "__shape__": "(64,)", 
        "__storage_type__": "0", 
        "__wd_mult__": "1.0"
      }, 
      "inputs": []
    }, 
    {
      "op": "BatchNorm", 
      "name": "resnest_layers1_batchnorm8_fwd", 
      "attrs": {
        "axis": "1", 
        "eps": "1e-05", 
        "fix_gamma": "False", 
        "momentum": "0.9", 
        "use_global_stats": "False"
      }, 
      "inputs": [[133, 0, 0], [134, 0, 0], [135, 0, 0], [136, 0, 1], [137, 0, 1]]
    }, 
    {
      "op": "Activation", 
      "name": "resnest_layers1_relu8_fwd", 
      "attrs": {"act_type": "relu"}, 
      "inputs": [[138, 0, 0]]
    }, 
    {
      "op": "null", 
      "name": "resnest_layers1_conv11_weight", 
      "attrs": {
        "__dtype__": "0", 
        "__lr_mult__": "1.0", 
        "__shape__": "(128, 32, 3, 3)", 
        "__storage_type__": "0", 
        "__wd_mult__": "1.0"
      }, 
      "inputs": []
    }, 
    {
      "op": "Convolution", 
      "name": "resnest_layers1_conv11_fwd", 
      "attrs": {
        "dilate": "(1, 1)", 
        "kernel": "(3, 3)", 
        "layout": "NCHW", 
        "no_bias": "True", 
        "num_filter": "128", 
        "num_group": "2", 
        "pad": "(1, 1)", 
        "stride": "(1, 1)"
      }, 
      "inputs": [[139, 0, 0], [140, 0, 0]]
    }, 
    {
      "op": "null", 
      "name": "resnest_layers1_batchnorm9_gamma", 
      "attrs": {
        "__dtype__": "0", 
        "__init__": "ones", 
        "__lr_mult__": "1.0", 
        "__shape__": "(128,)", 
        "__storage_type__": "0", 
        "__wd_mult__": "1.0"
      }, 
      "inputs": []
    }, 
    {
      "op": "null", 
      "name": "resnest_layers1_batchnorm9_beta", 
      "attrs": {
        "__dtype__": "0", 
        "__init__": "zeros", 
        "__lr_mult__": "1.0", 
        "__shape__": "(128,)", 
        "__storage_type__": "0", 
        "__wd_mult__": "1.0"
      }, 
      "inputs": []
    }, 
    {
      "op": "null", 
      "name": "resnest_layers1_batchnorm9_running_mean", 
      "attrs": {
        "__dtype__": "0", 
        "__init__": "zeros", 
        "__lr_mult__": "1.0", 
        "__shape__": "(128,)", 
        "__storage_type__": "0", 
        "__wd_mult__": "1.0"
      }, 
      "inputs": []
    }, 
    {
      "op": "null", 
      "name": "resnest_layers1_batchnorm9_running_var", 
      "attrs": {
        "__dtype__": "0", 
        "__init__": "ones", 
        "__lr_mult__": "1.0", 
        "__shape__": "(128,)", 
        "__storage_type__": "0", 
        "__wd_mult__": "1.0"
      }, 
      "inputs": []
    }, 
    {
      "op": "BatchNorm", 
      "name": "resnest_layers1_batchnorm9_fwd", 
      "attrs": {
        "axis": "1", 
        "eps": "1e-05", 
        "fix_gamma": "False", 
        "momentum": "0.9", 
        "use_global_stats": "False"
      }, 
      "inputs": [[141, 0, 0], [142, 0, 0], [143, 0, 0], [144, 0, 1], [145, 0, 1]]
    }, 
    {
      "op": "Activation", 
      "name": "resnest_layers1_relu9_fwd", 
      "attrs": {"act_type": "relu"}, 
      "inputs": [[146, 0, 0]]
    }, 
    {
      "op": "SliceChannel", 
      "name": "resnest_layers1_splitattentionconv2_split0", 
      "attrs": {
        "axis": "1", 
        "num_outputs": "2"
      }, 
      "inputs": [[147, 0, 0]]
    }, 
    {
      "op": "_plus_scalar", 
      "name": "resnest_layers1_splitattentionconv2__plusscalar0", 
      "attrs": {"scalar": "0"}, 
      "inputs": [[148, 0, 0]]
    }, 
    {
      "op": "elemwise_add", 
      "name": "resnest_layers1_splitattentionconv2__plus0", 
      "inputs": [[149, 0, 0], [148, 1, 0]]
    }, 
    {
      "op": "_contrib_AdaptiveAvgPooling2D", 
      "name": "resnest_layers1_splitattentionconv2_adaptiveavgpooling2d0", 
      "attrs": {"output_size": "1"}, 
      "inputs": [[150, 0, 0]]
    }, 
    {
      "op": "null", 
      "name": "resnest_layers1_conv12_weight", 
      "attrs": {
        "__dtype__": "0", 
        "__lr_mult__": "1.0", 
        "__shape__": "(32, 64, 1, 1)", 
        "__storage_type__": "0", 
        "__wd_mult__": "1.0"
      }, 
      "inputs": []
    }, 
    {
      "op": "null", 
      "name": "resnest_layers1_conv12_bias", 
      "attrs": {
        "__dtype__": "0", 
        "__init__": "zeros", 
        "__lr_mult__": "1.0", 
        "__shape__": "(32,)", 
        "__storage_type__": "0", 
        "__wd_mult__": "1.0"
      }, 
      "inputs": []
    }, 
    {
      "op": "Convolution", 
      "name": "resnest_layers1_conv12_fwd", 
      "attrs": {
        "dilate": "(1, 1)", 
        "kernel": "(1, 1)", 
        "layout": "NCHW", 
        "no_bias": "False", 
        "num_filter": "32", 
        "num_group": "1", 
        "pad": "(0, 0)", 
        "stride": "(1, 1)"
      }, 
      "inputs": [[151, 0, 0], [152, 0, 0], [153, 0, 0]]
    }, 
    {
      "op": "null", 
      "name": "resnest_layers1_batchnorm10_gamma", 
      "attrs": {
        "__dtype__": "0", 
        "__init__": "ones", 
        "__lr_mult__": "1.0", 
        "__shape__": "(32,)", 
        "__storage_type__": "0", 
        "__wd_mult__": "1.0"
      }, 
      "inputs": []
    }, 
    {
      "op": "null", 
      "name": "resnest_layers1_batchnorm10_beta", 
      "attrs": {
        "__dtype__": "0", 
        "__init__": "zeros", 
        "__lr_mult__": "1.0", 
        "__shape__": "(32,)", 
        "__storage_type__": "0", 
        "__wd_mult__": "1.0"
      }, 
      "inputs": []
    }, 
    {
      "op": "null", 
      "name": "resnest_layers1_batchnorm10_running_mean", 
      "attrs": {
        "__dtype__": "0", 
        "__init__": "zeros", 
        "__lr_mult__": "1.0", 
        "__shape__": "(32,)", 
        "__storage_type__": "0", 
        "__wd_mult__": "1.0"
      }, 
      "inputs": []
    }, 
    {
      "op": "null", 
      "name": "resnest_layers1_batchnorm10_running_var", 
      "attrs": {
        "__dtype__": "0", 
        "__init__": "ones", 
        "__lr_mult__": "1.0", 
        "__shape__": "(32,)", 
        "__storage_type__": "0", 
        "__wd_mult__": "1.0"
      }, 
      "inputs": []
    }, 
    {
      "op": "BatchNorm", 
      "name": "resnest_layers1_batchnorm10_fwd", 
      "attrs": {
        "axis": "1", 
        "eps": "1e-05", 
        "fix_gamma": "False", 
        "momentum": "0.9", 
        "use_global_stats": "False"
      }, 
      "inputs": [[154, 0, 0], [155, 0, 0], [156, 0, 0], [157, 0, 1], [158, 0, 1]]
    }, 
    {
      "op": "Activation", 
      "name": "resnest_layers1_relu10_fwd", 
      "attrs": {"act_type": "relu"}, 
      "inputs": [[159, 0, 0]]
    }, 
    {
      "op": "null", 
      "name": "resnest_layers1_conv13_weight", 
      "attrs": {
        "__dtype__": "0", 
        "__lr_mult__": "1.0", 
        "__shape__": "(128, 32, 1, 1)", 
        "__storage_type__": "0", 
        "__wd_mult__": "1.0"
      }, 
      "inputs": []
    }, 
    {
      "op": "null", 
      "name": "resnest_layers1_conv13_bias", 
      "attrs": {
        "__dtype__": "0", 
        "__init__": "zeros", 
        "__lr_mult__": "1.0", 
        "__shape__": "(128,)", 
        "__storage_type__": "0", 
        "__wd_mult__": "1.0"
      }, 
      "inputs": []
    }, 
    {
      "op": "Convolution", 
      "name": "resnest_layers1_conv13_fwd", 
      "attrs": {
        "dilate": "(1, 1)", 
        "kernel": "(1, 1)", 
        "layout": "NCHW", 
        "no_bias": "False", 
        "num_filter": "128", 
        "num_group": "1", 
        "pad": "(0, 0)", 
        "stride": "(1, 1)"
      }, 
      "inputs": [[160, 0, 0], [161, 0, 0], [162, 0, 0]]
    }, 
    {
      "op": "Reshape", 
      "name": "resnest_layers1_splitattentionconv2_reshape0", 
      "attrs": {"shape": "(0, 2, 64)"}, 
      "inputs": [[163, 0, 0]]
    }, 
    {
      "op": "softmax", 
      "name": "resnest_layers1_splitattentionconv2_softmax0", 
      "attrs": {"axis": "1"}, 
      "inputs": [[164, 0, 0]]
    }, 
    {
      "op": "Reshape", 
      "name": "resnest_layers1_splitattentionconv2_reshape1", 
      "attrs": {"shape": "(0, -1, 1, 1)"}, 
      "inputs": [[165, 0, 0]]
    }, 
    {
      "op": "SliceChannel", 
      "name": "resnest_layers1_splitattentionconv2_split1", 
      "attrs": {
        "axis": "1", 
        "num_outputs": "2"
      }, 
      "inputs": [[166, 0, 0]]
    }, 
    {
      "op": "broadcast_mul", 
      "name": "resnest_layers1_splitattentionconv2_broadcast_mul0", 
      "inputs": [[167, 0, 0], [148, 0, 0]]
    }, 
    {
      "op": "_plus_scalar", 
      "name": "resnest_layers1_splitattentionconv2__plusscalar1", 
      "attrs": {"scalar": "0"}, 
      "inputs": [[168, 0, 0]]
    }, 
    {
      "op": "broadcast_mul", 
      "name": "resnest_layers1_splitattentionconv2_broadcast_mul1", 
      "inputs": [[167, 1, 0], [148, 1, 0]]
    }, 
    {
      "op": "elemwise_add", 
      "name": "resnest_layers1_splitattentionconv2__plus1", 
      "inputs": [[169, 0, 0], [170, 0, 0]]
    }, 
    {
      "op": "null", 
      "name": "resnest_layers1_conv14_weight", 
      "attrs": {
        "__dtype__": "0", 
        "__lr_mult__": "1.0", 
        "__shape__": "(256, 64, 1, 1)", 
        "__storage_type__": "0", 
        "__wd_mult__": "1.0"
      }, 
      "inputs": []
    }, 
    {
      "op": "Convolution", 
      "name": "resnest_layers1_conv14_fwd", 
      "attrs": {
        "dilate": "(1, 1)", 
        "kernel": "(1, 1)", 
        "layout": "NCHW", 
        "no_bias": "True", 
        "num_filter": "256", 
        "num_group": "1", 
        "pad": "(0, 0)", 
        "stride": "(1, 1)"
      }, 
      "inputs": [[171, 0, 0], [172, 0, 0]]
    }, 
    {
      "op": "null", 
      "name": "resnest_layers1_batchnorm11_gamma", 
      "attrs": {
        "__dtype__": "0", 
        "__init__": "ones", 
        "__lr_mult__": "1.0", 
        "__shape__": "(256,)", 
        "__storage_type__": "0", 
        "__wd_mult__": "1.0"
      }, 
      "inputs": []
    }, 
    {
      "op": "null", 
      "name": "resnest_layers1_batchnorm11_beta", 
      "attrs": {
        "__dtype__": "0", 
        "__init__": "zeros", 
        "__lr_mult__": "1.0", 
        "__shape__": "(256,)", 
        "__storage_type__": "0", 
        "__wd_mult__": "1.0"
      }, 
      "inputs": []
    }, 
    {
      "op": "null", 
      "name": "resnest_layers1_batchnorm11_running_mean", 
      "attrs": {
        "__dtype__": "0", 
        "__init__": "zeros", 
        "__lr_mult__": "1.0", 
        "__shape__": "(256,)", 
        "__storage_type__": "0", 
        "__wd_mult__": "1.0"
      }, 
      "inputs": []
    }, 
    {
      "op": "null", 
      "name": "resnest_layers1_batchnorm11_running_var", 
      "attrs": {
        "__dtype__": "0", 
        "__init__": "ones", 
        "__lr_mult__": "1.0", 
        "__shape__": "(256,)", 
        "__storage_type__": "0", 
        "__wd_mult__": "1.0"
      }, 
      "inputs": []
    }, 
    {
      "op": "BatchNorm", 
      "name": "resnest_layers1_batchnorm11_fwd", 
      "attrs": {
        "axis": "1", 
        "eps": "1e-05", 
        "fix_gamma": "False", 
        "momentum": "0.9", 
        "use_global_stats": "False"
      }, 
      "inputs": [[173, 0, 0], [174, 0, 0], [175, 0, 0], [176, 0, 1], [177, 0, 1]]
    }, 
    {
      "op": "elemwise_add", 
      "name": "resnest_layers1_bottleneck2__plus0", 
      "inputs": [[178, 0, 0], [131, 0, 0]]
    }, 
    {
      "op": "Activation", 
      "name": "resnest_layers1_relu11_fwd", 
      "attrs": {"act_type": "relu"}, 
      "inputs": [[179, 0, 0]]
    }, 
    {
      "op": "null", 
      "name": "resnest_layers2_conv0_weight", 
      "attrs": {
        "__dtype__": "0", 
        "__lr_mult__": "1.0", 
        "__shape__": "(128, 256, 1, 1)", 
        "__storage_type__": "0", 
        "__wd_mult__": "1.0"
      }, 
      "inputs": []
    }, 
    {
      "op": "Convolution", 
      "name": "resnest_layers2_conv0_fwd", 
      "attrs": {
        "dilate": "(1, 1)", 
        "kernel": "(1, 1)", 
        "layout": "NCHW", 
        "no_bias": "True", 
        "num_filter": "128", 
        "num_group": "1", 
        "pad": "(0, 0)", 
        "stride": "(1, 1)"
      }, 
      "inputs": [[180, 0, 0], [181, 0, 0]]
    }, 
    {
      "op": "null", 
      "name": "resnest_layers2_batchnorm0_gamma", 
      "attrs": {
        "__dtype__": "0", 
        "__init__": "ones", 
        "__lr_mult__": "1.0", 
        "__shape__": "(128,)", 
        "__storage_type__": "0", 
        "__wd_mult__": "1.0"
      }, 
      "inputs": []
    }, 
    {
      "op": "null", 
      "name": "resnest_layers2_batchnorm0_beta", 
      "attrs": {
        "__dtype__": "0", 
        "__init__": "zeros", 
        "__lr_mult__": "1.0", 
        "__shape__": "(128,)", 
        "__storage_type__": "0", 
        "__wd_mult__": "1.0"
      }, 
      "inputs": []
    }, 
    {
      "op": "null", 
      "name": "resnest_layers2_batchnorm0_running_mean", 
      "attrs": {
        "__dtype__": "0", 
        "__init__": "zeros", 
        "__lr_mult__": "1.0", 
        "__shape__": "(128,)", 
        "__storage_type__": "0", 
        "__wd_mult__": "1.0"
      }, 
      "inputs": []
    }, 
    {
      "op": "null", 
      "name": "resnest_layers2_batchnorm0_running_var", 
      "attrs": {
        "__dtype__": "0", 
        "__init__": "ones", 
        "__lr_mult__": "1.0", 
        "__shape__": "(128,)", 
        "__storage_type__": "0", 
        "__wd_mult__": "1.0"
      }, 
      "inputs": []
    }, 
    {
      "op": "BatchNorm", 
      "name": "resnest_layers2_batchnorm0_fwd", 
      "attrs": {
        "axis": "1", 
        "eps": "1e-05", 
        "fix_gamma": "False", 
        "momentum": "0.9", 
        "use_global_stats": "False"
      }, 
      "inputs": [[182, 0, 0], [183, 0, 0], [184, 0, 0], [185, 0, 1], [186, 0, 1]]
    }, 
    {
      "op": "Activation", 
      "name": "resnest_layers2_relu0_fwd", 
      "attrs": {"act_type": "relu"}, 
      "inputs": [[187, 0, 0]]
    }, 
    {
      "op": "null", 
      "name": "resnest_layers2_conv1_weight", 
      "attrs": {
        "__dtype__": "0", 
        "__lr_mult__": "1.0", 
        "__shape__": "(256, 64, 3, 3)", 
        "__storage_type__": "0", 
        "__wd_mult__": "1.0"
      }, 
      "inputs": []
    }, 
    {
      "op": "Convolution", 
      "name": "resnest_layers2_conv1_fwd", 
      "attrs": {
        "dilate": "(1, 1)", 
        "kernel": "(3, 3)", 
        "layout": "NCHW", 
        "no_bias": "True", 
        "num_filter": "256", 
        "num_group": "2", 
        "pad": "(1, 1)", 
        "stride": "(1, 1)"
      }, 
      "inputs": [[188, 0, 0], [189, 0, 0]]
    }, 
    {
      "op": "null", 
      "name": "resnest_layers2_batchnorm1_gamma", 
      "attrs": {
        "__dtype__": "0", 
        "__init__": "ones", 
        "__lr_mult__": "1.0", 
        "__shape__": "(256,)", 
        "__storage_type__": "0", 
        "__wd_mult__": "1.0"
      }, 
      "inputs": []
    }, 
    {
      "op": "null", 
      "name": "resnest_layers2_batchnorm1_beta", 
      "attrs": {
        "__dtype__": "0", 
        "__init__": "zeros", 
        "__lr_mult__": "1.0", 
        "__shape__": "(256,)", 
        "__storage_type__": "0", 
        "__wd_mult__": "1.0"
      }, 
      "inputs": []
    }, 
    {
      "op": "null", 
      "name": "resnest_layers2_batchnorm1_running_mean", 
      "attrs": {
        "__dtype__": "0", 
        "__init__": "zeros", 
        "__lr_mult__": "1.0", 
        "__shape__": "(256,)", 
        "__storage_type__": "0", 
        "__wd_mult__": "1.0"
      }, 
      "inputs": []
    }, 
    {
      "op": "null", 
      "name": "resnest_layers2_batchnorm1_running_var", 
      "attrs": {
        "__dtype__": "0", 
        "__init__": "ones", 
        "__lr_mult__": "1.0", 
        "__shape__": "(256,)", 
        "__storage_type__": "0", 
        "__wd_mult__": "1.0"
      }, 
      "inputs": []
    }, 
    {
      "op": "BatchNorm", 
      "name": "resnest_layers2_batchnorm1_fwd", 
      "attrs": {
        "axis": "1", 
        "eps": "1e-05", 
        "fix_gamma": "False", 
        "momentum": "0.9", 
        "use_global_stats": "False"
      }, 
      "inputs": [[190, 0, 0], [191, 0, 0], [192, 0, 0], [193, 0, 1], [194, 0, 1]]
    }, 
    {
      "op": "Activation", 
      "name": "resnest_layers2_relu1_fwd", 
      "attrs": {"act_type": "relu"}, 
      "inputs": [[195, 0, 0]]
    }, 
    {
      "op": "SliceChannel", 
      "name": "resnest_layers2_splitattentionconv0_split0", 
      "attrs": {
        "axis": "1", 
        "num_outputs": "2"
      }, 
      "inputs": [[196, 0, 0]]
    }, 
    {
      "op": "_plus_scalar", 
      "name": "resnest_layers2_splitattentionconv0__plusscalar0", 
      "attrs": {"scalar": "0"}, 
      "inputs": [[197, 0, 0]]
    }, 
    {
      "op": "elemwise_add", 
      "name": "resnest_layers2_splitattentionconv0__plus0", 
      "inputs": [[198, 0, 0], [197, 1, 0]]
    }, 
    {
      "op": "_contrib_AdaptiveAvgPooling2D", 
      "name": "resnest_layers2_splitattentionconv0_adaptiveavgpooling2d0", 
      "attrs": {"output_size": "1"}, 
      "inputs": [[199, 0, 0]]
    }, 
    {
      "op": "null", 
      "name": "resnest_layers2_conv2_weight", 
      "attrs": {
        "__dtype__": "0", 
        "__lr_mult__": "1.0", 
        "__shape__": "(64, 128, 1, 1)", 
        "__storage_type__": "0", 
        "__wd_mult__": "1.0"
      }, 
      "inputs": []
    }, 
    {
      "op": "null", 
      "name": "resnest_layers2_conv2_bias", 
      "attrs": {
        "__dtype__": "0", 
        "__init__": "zeros", 
        "__lr_mult__": "1.0", 
        "__shape__": "(64,)", 
        "__storage_type__": "0", 
        "__wd_mult__": "1.0"
      }, 
      "inputs": []
    }, 
    {
      "op": "Convolution", 
      "name": "resnest_layers2_conv2_fwd", 
      "attrs": {
        "dilate": "(1, 1)", 
        "kernel": "(1, 1)", 
        "layout": "NCHW", 
        "no_bias": "False", 
        "num_filter": "64", 
        "num_group": "1", 
        "pad": "(0, 0)", 
        "stride": "(1, 1)"
      }, 
      "inputs": [[200, 0, 0], [201, 0, 0], [202, 0, 0]]
    }, 
    {
      "op": "null", 
      "name": "resnest_layers2_batchnorm2_gamma", 
      "attrs": {
        "__dtype__": "0", 
        "__init__": "ones", 
        "__lr_mult__": "1.0", 
        "__shape__": "(64,)", 
        "__storage_type__": "0", 
        "__wd_mult__": "1.0"
      }, 
      "inputs": []
    }, 
    {
      "op": "null", 
      "name": "resnest_layers2_batchnorm2_beta", 
      "attrs": {
        "__dtype__": "0", 
        "__init__": "zeros", 
        "__lr_mult__": "1.0", 
        "__shape__": "(64,)", 
        "__storage_type__": "0", 
        "__wd_mult__": "1.0"
      }, 
      "inputs": []
    }, 
    {
      "op": "null", 
      "name": "resnest_layers2_batchnorm2_running_mean", 
      "attrs": {
        "__dtype__": "0", 
        "__init__": "zeros", 
        "__lr_mult__": "1.0", 
        "__shape__": "(64,)", 
        "__storage_type__": "0", 
        "__wd_mult__": "1.0"
      }, 
      "inputs": []
    }, 
    {
      "op": "null", 
      "name": "resnest_layers2_batchnorm2_running_var", 
      "attrs": {
        "__dtype__": "0", 
        "__init__": "ones", 
        "__lr_mult__": "1.0", 
        "__shape__": "(64,)", 
        "__storage_type__": "0", 
        "__wd_mult__": "1.0"
      }, 
      "inputs": []
    }, 
    {
      "op": "BatchNorm", 
      "name": "resnest_layers2_batchnorm2_fwd", 
      "attrs": {
        "axis": "1", 
        "eps": "1e-05", 
        "fix_gamma": "False", 
        "momentum": "0.9", 
        "use_global_stats": "False"
      }, 
      "inputs": [[203, 0, 0], [204, 0, 0], [205, 0, 0], [206, 0, 1], [207, 0, 1]]
    }, 
    {
      "op": "Activation", 
      "name": "resnest_layers2_relu2_fwd", 
      "attrs": {"act_type": "relu"}, 
      "inputs": [[208, 0, 0]]
    }, 
    {
      "op": "null", 
      "name": "resnest_layers2_conv3_weight", 
      "attrs": {
        "__dtype__": "0", 
        "__lr_mult__": "1.0", 
        "__shape__": "(256, 64, 1, 1)", 
        "__storage_type__": "0", 
        "__wd_mult__": "1.0"
      }, 
      "inputs": []
    }, 
    {
      "op": "null", 
      "name": "resnest_layers2_conv3_bias", 
      "attrs": {
        "__dtype__": "0", 
        "__init__": "zeros", 
        "__lr_mult__": "1.0", 
        "__shape__": "(256,)", 
        "__storage_type__": "0", 
        "__wd_mult__": "1.0"
      }, 
      "inputs": []
    }, 
    {
      "op": "Convolution", 
      "name": "resnest_layers2_conv3_fwd", 
      "attrs": {
        "dilate": "(1, 1)", 
        "kernel": "(1, 1)", 
        "layout": "NCHW", 
        "no_bias": "False", 
        "num_filter": "256", 
        "num_group": "1", 
        "pad": "(0, 0)", 
        "stride": "(1, 1)"
      }, 
      "inputs": [[209, 0, 0], [210, 0, 0], [211, 0, 0]]
    }, 
    {
      "op": "Reshape", 
      "name": "resnest_layers2_splitattentionconv0_reshape0", 
      "attrs": {"shape": "(0, 2, 128)"}, 
      "inputs": [[212, 0, 0]]
    }, 
    {
      "op": "softmax", 
      "name": "resnest_layers2_splitattentionconv0_softmax0", 
      "attrs": {"axis": "1"}, 
      "inputs": [[213, 0, 0]]
    }, 
    {
      "op": "Reshape", 
      "name": "resnest_layers2_splitattentionconv0_reshape1", 
      "attrs": {"shape": "(0, -1, 1, 1)"}, 
      "inputs": [[214, 0, 0]]
    }, 
    {
      "op": "SliceChannel", 
      "name": "resnest_layers2_splitattentionconv0_split1", 
      "attrs": {
        "axis": "1", 
        "num_outputs": "2"
      }, 
      "inputs": [[215, 0, 0]]
    }, 
    {
      "op": "broadcast_mul", 
      "name": "resnest_layers2_splitattentionconv0_broadcast_mul0", 
      "inputs": [[216, 0, 0], [197, 0, 0]]
    }, 
    {
      "op": "_plus_scalar", 
      "name": "resnest_layers2_splitattentionconv0__plusscalar1", 
      "attrs": {"scalar": "0"}, 
      "inputs": [[217, 0, 0]]
    }, 
    {
      "op": "broadcast_mul", 
      "name": "resnest_layers2_splitattentionconv0_broadcast_mul1", 
      "inputs": [[216, 1, 0], [197, 1, 0]]
    }, 
    {
      "op": "elemwise_add", 
      "name": "resnest_layers2_splitattentionconv0__plus1", 
      "inputs": [[218, 0, 0], [219, 0, 0]]
    }, 
    {
      "op": "Pooling", 
      "name": "resnest_layers2_pool0_fwd", 
      "attrs": {
        "count_include_pad": "True", 
        "global_pool": "False", 
        "kernel": "(3, 3)", 
        "layout": "NCHW", 
        "pad": "(1, 1)", 
        "pool_type": "avg", 
        "pooling_convention": "valid", 
        "stride": "(2, 2)"
      }, 
      "inputs": [[220, 0, 0]]
    }, 
    {
      "op": "null", 
      "name": "resnest_layers2_conv4_weight", 
      "attrs": {
        "__dtype__": "0", 
        "__lr_mult__": "1.0", 
        "__shape__": "(512, 128, 1, 1)", 
        "__storage_type__": "0", 
        "__wd_mult__": "1.0"
      }, 
      "inputs": []
    }, 
    {
      "op": "Convolution", 
      "name": "resnest_layers2_conv4_fwd", 
      "attrs": {
        "dilate": "(1, 1)", 
        "kernel": "(1, 1)", 
        "layout": "NCHW", 
        "no_bias": "True", 
        "num_filter": "512", 
        "num_group": "1", 
        "pad": "(0, 0)", 
        "stride": "(1, 1)"
      }, 
      "inputs": [[221, 0, 0], [222, 0, 0]]
    }, 
    {
      "op": "null", 
      "name": "resnest_layers2_batchnorm3_gamma", 
      "attrs": {
        "__dtype__": "0", 
        "__init__": "ones", 
        "__lr_mult__": "1.0", 
        "__shape__": "(512,)", 
        "__storage_type__": "0", 
        "__wd_mult__": "1.0"
      }, 
      "inputs": []
    }, 
    {
      "op": "null", 
      "name": "resnest_layers2_batchnorm3_beta", 
      "attrs": {
        "__dtype__": "0", 
        "__init__": "zeros", 
        "__lr_mult__": "1.0", 
        "__shape__": "(512,)", 
        "__storage_type__": "0", 
        "__wd_mult__": "1.0"
      }, 
      "inputs": []
    }, 
    {
      "op": "null", 
      "name": "resnest_layers2_batchnorm3_running_mean", 
      "attrs": {
        "__dtype__": "0", 
        "__init__": "zeros", 
        "__lr_mult__": "1.0", 
        "__shape__": "(512,)", 
        "__storage_type__": "0", 
        "__wd_mult__": "1.0"
      }, 
      "inputs": []
    }, 
    {
      "op": "null", 
      "name": "resnest_layers2_batchnorm3_running_var", 
      "attrs": {
        "__dtype__": "0", 
        "__init__": "ones", 
        "__lr_mult__": "1.0", 
        "__shape__": "(512,)", 
        "__storage_type__": "0", 
        "__wd_mult__": "1.0"
      }, 
      "inputs": []
    }, 
    {
      "op": "BatchNorm", 
      "name": "resnest_layers2_batchnorm3_fwd", 
      "attrs": {
        "axis": "1", 
        "eps": "1e-05", 
        "fix_gamma": "False", 
        "momentum": "0.9", 
        "use_global_stats": "False"
      }, 
      "inputs": [[223, 0, 0], [224, 0, 0], [225, 0, 0], [226, 0, 1], [227, 0, 1]]
    }, 
    {
      "op": "Pooling", 
      "name": "resnest_down2_pool0_fwd", 
      "attrs": {
        "count_include_pad": "False", 
        "global_pool": "False", 
        "kernel": "(2, 2)", 
        "layout": "NCHW", 
        "pad": "(0, 0)", 
        "pool_type": "avg", 
        "pooling_convention": "full", 
        "stride": "(2, 2)"
      }, 
      "inputs": [[180, 0, 0]]
    }, 
    {
      "op": "null", 
      "name": "resnest_down2_conv0_weight", 
      "attrs": {
        "__dtype__": "0", 
        "__lr_mult__": "1.0", 
        "__shape__": "(512, 256, 1, 1)", 
        "__storage_type__": "0", 
        "__wd_mult__": "1.0"
      }, 
      "inputs": []
    }, 
    {
      "op": "Convolution", 
      "name": "resnest_down2_conv0_fwd", 
      "attrs": {
        "dilate": "(1, 1)", 
        "kernel": "(1, 1)", 
        "layout": "NCHW", 
        "no_bias": "True", 
        "num_filter": "512", 
        "num_group": "1", 
        "pad": "(0, 0)", 
        "stride": "(1, 1)"
      }, 
      "inputs": [[229, 0, 0], [230, 0, 0]]
    }, 
    {
      "op": "null", 
      "name": "resnest_down2_batchnorm0_gamma", 
      "attrs": {
        "__dtype__": "0", 
        "__init__": "ones", 
        "__lr_mult__": "1.0", 
        "__shape__": "(512,)", 
        "__storage_type__": "0", 
        "__wd_mult__": "1.0"
      }, 
      "inputs": []
    }, 
    {
      "op": "null", 
      "name": "resnest_down2_batchnorm0_beta", 
      "attrs": {
        "__dtype__": "0", 
        "__init__": "zeros", 
        "__lr_mult__": "1.0", 
        "__shape__": "(512,)", 
        "__storage_type__": "0", 
        "__wd_mult__": "1.0"
      }, 
      "inputs": []
    }, 
    {
      "op": "null", 
      "name": "resnest_down2_batchnorm0_running_mean", 
      "attrs": {
        "__dtype__": "0", 
        "__init__": "zeros", 
        "__lr_mult__": "1.0", 
        "__shape__": "(512,)", 
        "__storage_type__": "0", 
        "__wd_mult__": "1.0"
      }, 
      "inputs": []
    }, 
    {
      "op": "null", 
      "name": "resnest_down2_batchnorm0_running_var", 
      "attrs": {
        "__dtype__": "0", 
        "__init__": "ones", 
        "__lr_mult__": "1.0", 
        "__shape__": "(512,)", 
        "__storage_type__": "0", 
        "__wd_mult__": "1.0"
      }, 
      "inputs": []
    }, 
    {
      "op": "BatchNorm", 
      "name": "resnest_down2_batchnorm0_fwd", 
      "attrs": {
        "axis": "1", 
        "eps": "1e-05", 
        "fix_gamma": "False", 
        "momentum": "0.9", 
        "use_global_stats": "False"
      }, 
      "inputs": [[231, 0, 0], [232, 0, 0], [233, 0, 0], [234, 0, 1], [235, 0, 1]]
    }, 
    {
      "op": "elemwise_add", 
      "name": "resnest_layers2_bottleneck0__plus0", 
      "inputs": [[228, 0, 0], [236, 0, 0]]
    }, 
    {
      "op": "Activation", 
      "name": "resnest_layers2_relu3_fwd", 
      "attrs": {"act_type": "relu"}, 
      "inputs": [[237, 0, 0]]
    }, 
    {
      "op": "null", 
      "name": "resnest_layers2_conv5_weight", 
      "attrs": {
        "__dtype__": "0", 
        "__lr_mult__": "1.0", 
        "__shape__": "(128, 512, 1, 1)", 
        "__storage_type__": "0", 
        "__wd_mult__": "1.0"
      }, 
      "inputs": []
    }, 
    {
      "op": "Convolution", 
      "name": "resnest_layers2_conv5_fwd", 
      "attrs": {
        "dilate": "(1, 1)", 
        "kernel": "(1, 1)", 
        "layout": "NCHW", 
        "no_bias": "True", 
        "num_filter": "128", 
        "num_group": "1", 
        "pad": "(0, 0)", 
        "stride": "(1, 1)"
      }, 
      "inputs": [[238, 0, 0], [239, 0, 0]]
    }, 
    {
      "op": "null", 
      "name": "resnest_layers2_batchnorm4_gamma", 
      "attrs": {
        "__dtype__": "0", 
        "__init__": "ones", 
        "__lr_mult__": "1.0", 
        "__shape__": "(128,)", 
        "__storage_type__": "0", 
        "__wd_mult__": "1.0"
      }, 
      "inputs": []
    }, 
    {
      "op": "null", 
      "name": "resnest_layers2_batchnorm4_beta", 
      "attrs": {
        "__dtype__": "0", 
        "__init__": "zeros", 
        "__lr_mult__": "1.0", 
        "__shape__": "(128,)", 
        "__storage_type__": "0", 
        "__wd_mult__": "1.0"
      }, 
      "inputs": []
    }, 
    {
      "op": "null", 
      "name": "resnest_layers2_batchnorm4_running_mean", 
      "attrs": {
        "__dtype__": "0", 
        "__init__": "zeros", 
        "__lr_mult__": "1.0", 
        "__shape__": "(128,)", 
        "__storage_type__": "0", 
        "__wd_mult__": "1.0"
      }, 
      "inputs": []
    }, 
    {
      "op": "null", 
      "name": "resnest_layers2_batchnorm4_running_var", 
      "attrs": {
        "__dtype__": "0", 
        "__init__": "ones", 
        "__lr_mult__": "1.0", 
        "__shape__": "(128,)", 
        "__storage_type__": "0", 
        "__wd_mult__": "1.0"
      }, 
      "inputs": []
    }, 
    {
      "op": "BatchNorm", 
      "name": "resnest_layers2_batchnorm4_fwd", 
      "attrs": {
        "axis": "1", 
        "eps": "1e-05", 
        "fix_gamma": "False", 
        "momentum": "0.9", 
        "use_global_stats": "False"
      }, 
      "inputs": [[240, 0, 0], [241, 0, 0], [242, 0, 0], [243, 0, 1], [244, 0, 1]]
    }, 
    {
      "op": "Activation", 
      "name": "resnest_layers2_relu4_fwd", 
      "attrs": {"act_type": "relu"}, 
      "inputs": [[245, 0, 0]]
    }, 
    {
      "op": "null", 
      "name": "resnest_layers2_conv6_weight", 
      "attrs": {
        "__dtype__": "0", 
        "__lr_mult__": "1.0", 
        "__shape__": "(256, 64, 3, 3)", 
        "__storage_type__": "0", 
        "__wd_mult__": "1.0"
      }, 
      "inputs": []
    }, 
    {
      "op": "Convolution", 
      "name": "resnest_layers2_conv6_fwd", 
      "attrs": {
        "dilate": "(1, 1)", 
        "kernel": "(3, 3)", 
        "layout": "NCHW", 
        "no_bias": "True", 
        "num_filter": "256", 
        "num_group": "2", 
        "pad": "(1, 1)", 
        "stride": "(1, 1)"
      }, 
      "inputs": [[246, 0, 0], [247, 0, 0]]
    }, 
    {
      "op": "null", 
      "name": "resnest_layers2_batchnorm5_gamma", 
      "attrs": {
        "__dtype__": "0", 
        "__init__": "ones", 
        "__lr_mult__": "1.0", 
        "__shape__": "(256,)", 
        "__storage_type__": "0", 
        "__wd_mult__": "1.0"
      }, 
      "inputs": []
    }, 
    {
      "op": "null", 
      "name": "resnest_layers2_batchnorm5_beta", 
      "attrs": {
        "__dtype__": "0", 
        "__init__": "zeros", 
        "__lr_mult__": "1.0", 
        "__shape__": "(256,)", 
        "__storage_type__": "0", 
        "__wd_mult__": "1.0"
      }, 
      "inputs": []
    }, 
    {
      "op": "null", 
      "name": "resnest_layers2_batchnorm5_running_mean", 
      "attrs": {
        "__dtype__": "0", 
        "__init__": "zeros", 
        "__lr_mult__": "1.0", 
        "__shape__": "(256,)", 
        "__storage_type__": "0", 
        "__wd_mult__": "1.0"
      }, 
      "inputs": []
    }, 
    {
      "op": "null", 
      "name": "resnest_layers2_batchnorm5_running_var", 
      "attrs": {
        "__dtype__": "0", 
        "__init__": "ones", 
        "__lr_mult__": "1.0", 
        "__shape__": "(256,)", 
        "__storage_type__": "0", 
        "__wd_mult__": "1.0"
      }, 
      "inputs": []
    }, 
    {
      "op": "BatchNorm", 
      "name": "resnest_layers2_batchnorm5_fwd", 
      "attrs": {
        "axis": "1", 
        "eps": "1e-05", 
        "fix_gamma": "False", 
        "momentum": "0.9", 
        "use_global_stats": "False"
      }, 
      "inputs": [[248, 0, 0], [249, 0, 0], [250, 0, 0], [251, 0, 1], [252, 0, 1]]
    }, 
    {
      "op": "Activation", 
      "name": "resnest_layers2_relu5_fwd", 
      "attrs": {"act_type": "relu"}, 
      "inputs": [[253, 0, 0]]
    }, 
    {
      "op": "SliceChannel", 
      "name": "resnest_layers2_splitattentionconv1_split0", 
      "attrs": {
        "axis": "1", 
        "num_outputs": "2"
      }, 
      "inputs": [[254, 0, 0]]
    }, 
    {
      "op": "_plus_scalar", 
      "name": "resnest_layers2_splitattentionconv1__plusscalar0", 
      "attrs": {"scalar": "0"}, 
      "inputs": [[255, 0, 0]]
    }, 
    {
      "op": "elemwise_add", 
      "name": "resnest_layers2_splitattentionconv1__plus0", 
      "inputs": [[256, 0, 0], [255, 1, 0]]
    }, 
    {
      "op": "_contrib_AdaptiveAvgPooling2D", 
      "name": "resnest_layers2_splitattentionconv1_adaptiveavgpooling2d0", 
      "attrs": {"output_size": "1"}, 
      "inputs": [[257, 0, 0]]
    }, 
    {
      "op": "null", 
      "name": "resnest_layers2_conv7_weight", 
      "attrs": {
        "__dtype__": "0", 
        "__lr_mult__": "1.0", 
        "__shape__": "(64, 128, 1, 1)", 
        "__storage_type__": "0", 
        "__wd_mult__": "1.0"
      }, 
      "inputs": []
    }, 
    {
      "op": "null", 
      "name": "resnest_layers2_conv7_bias", 
      "attrs": {
        "__dtype__": "0", 
        "__init__": "zeros", 
        "__lr_mult__": "1.0", 
        "__shape__": "(64,)", 
        "__storage_type__": "0", 
        "__wd_mult__": "1.0"
      }, 
      "inputs": []
    }, 
    {
      "op": "Convolution", 
      "name": "resnest_layers2_conv7_fwd", 
      "attrs": {
        "dilate": "(1, 1)", 
        "kernel": "(1, 1)", 
        "layout": "NCHW", 
        "no_bias": "False", 
        "num_filter": "64", 
        "num_group": "1", 
        "pad": "(0, 0)", 
        "stride": "(1, 1)"
      }, 
      "inputs": [[258, 0, 0], [259, 0, 0], [260, 0, 0]]
    }, 
    {
      "op": "null", 
      "name": "resnest_layers2_batchnorm6_gamma", 
      "attrs": {
        "__dtype__": "0", 
        "__init__": "ones", 
        "__lr_mult__": "1.0", 
        "__shape__": "(64,)", 
        "__storage_type__": "0", 
        "__wd_mult__": "1.0"
      }, 
      "inputs": []
    }, 
    {
      "op": "null", 
      "name": "resnest_layers2_batchnorm6_beta", 
      "attrs": {
        "__dtype__": "0", 
        "__init__": "zeros", 
        "__lr_mult__": "1.0", 
        "__shape__": "(64,)", 
        "__storage_type__": "0", 
        "__wd_mult__": "1.0"
      }, 
      "inputs": []
    }, 
    {
      "op": "null", 
      "name": "resnest_layers2_batchnorm6_running_mean", 
      "attrs": {
        "__dtype__": "0", 
        "__init__": "zeros", 
        "__lr_mult__": "1.0", 
        "__shape__": "(64,)", 
        "__storage_type__": "0", 
        "__wd_mult__": "1.0"
      }, 
      "inputs": []
    }, 
    {
      "op": "null", 
      "name": "resnest_layers2_batchnorm6_running_var", 
      "attrs": {
        "__dtype__": "0", 
        "__init__": "ones", 
        "__lr_mult__": "1.0", 
        "__shape__": "(64,)", 
        "__storage_type__": "0", 
        "__wd_mult__": "1.0"
      }, 
      "inputs": []
    }, 
    {
      "op": "BatchNorm", 
      "name": "resnest_layers2_batchnorm6_fwd", 
      "attrs": {
        "axis": "1", 
        "eps": "1e-05", 
        "fix_gamma": "False", 
        "momentum": "0.9", 
        "use_global_stats": "False"
      }, 
      "inputs": [[261, 0, 0], [262, 0, 0], [263, 0, 0], [264, 0, 1], [265, 0, 1]]
    }, 
    {
      "op": "Activation", 
      "name": "resnest_layers2_relu6_fwd", 
      "attrs": {"act_type": "relu"}, 
      "inputs": [[266, 0, 0]]
    }, 
    {
      "op": "null", 
      "name": "resnest_layers2_conv8_weight", 
      "attrs": {
        "__dtype__": "0", 
        "__lr_mult__": "1.0", 
        "__shape__": "(256, 64, 1, 1)", 
        "__storage_type__": "0", 
        "__wd_mult__": "1.0"
      }, 
      "inputs": []
    }, 
    {
      "op": "null", 
      "name": "resnest_layers2_conv8_bias", 
      "attrs": {
        "__dtype__": "0", 
        "__init__": "zeros", 
        "__lr_mult__": "1.0", 
        "__shape__": "(256,)", 
        "__storage_type__": "0", 
        "__wd_mult__": "1.0"
      }, 
      "inputs": []
    }, 
    {
      "op": "Convolution", 
      "name": "resnest_layers2_conv8_fwd", 
      "attrs": {
        "dilate": "(1, 1)", 
        "kernel": "(1, 1)", 
        "layout": "NCHW", 
        "no_bias": "False", 
        "num_filter": "256", 
        "num_group": "1", 
        "pad": "(0, 0)", 
        "stride": "(1, 1)"
      }, 
      "inputs": [[267, 0, 0], [268, 0, 0], [269, 0, 0]]
    }, 
    {
      "op": "Reshape", 
      "name": "resnest_layers2_splitattentionconv1_reshape0", 
      "attrs": {"shape": "(0, 2, 128)"}, 
      "inputs": [[270, 0, 0]]
    }, 
    {
      "op": "softmax", 
      "name": "resnest_layers2_splitattentionconv1_softmax0", 
      "attrs": {"axis": "1"}, 
      "inputs": [[271, 0, 0]]
    }, 
    {
      "op": "Reshape", 
      "name": "resnest_layers2_splitattentionconv1_reshape1", 
      "attrs": {"shape": "(0, -1, 1, 1)"}, 
      "inputs": [[272, 0, 0]]
    }, 
    {
      "op": "SliceChannel", 
      "name": "resnest_layers2_splitattentionconv1_split1", 
      "attrs": {
        "axis": "1", 
        "num_outputs": "2"
      }, 
      "inputs": [[273, 0, 0]]
    }, 
    {
      "op": "broadcast_mul", 
      "name": "resnest_layers2_splitattentionconv1_broadcast_mul0", 
      "inputs": [[274, 0, 0], [255, 0, 0]]
    }, 
    {
      "op": "_plus_scalar", 
      "name": "resnest_layers2_splitattentionconv1__plusscalar1", 
      "attrs": {"scalar": "0"}, 
      "inputs": [[275, 0, 0]]
    }, 
    {
      "op": "broadcast_mul", 
      "name": "resnest_layers2_splitattentionconv1_broadcast_mul1", 
      "inputs": [[274, 1, 0], [255, 1, 0]]
    }, 
    {
      "op": "elemwise_add", 
      "name": "resnest_layers2_splitattentionconv1__plus1", 
      "inputs": [[276, 0, 0], [277, 0, 0]]
    }, 
    {
      "op": "null", 
      "name": "resnest_layers2_conv9_weight", 
      "attrs": {
        "__dtype__": "0", 
        "__lr_mult__": "1.0", 
        "__shape__": "(512, 128, 1, 1)", 
        "__storage_type__": "0", 
        "__wd_mult__": "1.0"
      }, 
      "inputs": []
    }, 
    {
      "op": "Convolution", 
      "name": "resnest_layers2_conv9_fwd", 
      "attrs": {
        "dilate": "(1, 1)", 
        "kernel": "(1, 1)", 
        "layout": "NCHW", 
        "no_bias": "True", 
        "num_filter": "512", 
        "num_group": "1", 
        "pad": "(0, 0)", 
        "stride": "(1, 1)"
      }, 
      "inputs": [[278, 0, 0], [279, 0, 0]]
    }, 
    {
      "op": "null", 
      "name": "resnest_layers2_batchnorm7_gamma", 
      "attrs": {
        "__dtype__": "0", 
        "__init__": "ones", 
        "__lr_mult__": "1.0", 
        "__shape__": "(512,)", 
        "__storage_type__": "0", 
        "__wd_mult__": "1.0"
      }, 
      "inputs": []
    }, 
    {
      "op": "null", 
      "name": "resnest_layers2_batchnorm7_beta", 
      "attrs": {
        "__dtype__": "0", 
        "__init__": "zeros", 
        "__lr_mult__": "1.0", 
        "__shape__": "(512,)", 
        "__storage_type__": "0", 
        "__wd_mult__": "1.0"
      }, 
      "inputs": []
    }, 
    {
      "op": "null", 
      "name": "resnest_layers2_batchnorm7_running_mean", 
      "attrs": {
        "__dtype__": "0", 
        "__init__": "zeros", 
        "__lr_mult__": "1.0", 
        "__shape__": "(512,)", 
        "__storage_type__": "0", 
        "__wd_mult__": "1.0"
      }, 
      "inputs": []
    }, 
    {
      "op": "null", 
      "name": "resnest_layers2_batchnorm7_running_var", 
      "attrs": {
        "__dtype__": "0", 
        "__init__": "ones", 
        "__lr_mult__": "1.0", 
        "__shape__": "(512,)", 
        "__storage_type__": "0", 
        "__wd_mult__": "1.0"
      }, 
      "inputs": []
    }, 
    {
      "op": "BatchNorm", 
      "name": "resnest_layers2_batchnorm7_fwd", 
      "attrs": {
        "axis": "1", 
        "eps": "1e-05", 
        "fix_gamma": "False", 
        "momentum": "0.9", 
        "use_global_stats": "False"
      }, 
      "inputs": [[280, 0, 0], [281, 0, 0], [282, 0, 0], [283, 0, 1], [284, 0, 1]]
    }, 
    {
      "op": "elemwise_add", 
      "name": "resnest_layers2_bottleneck1__plus0", 
      "inputs": [[285, 0, 0], [238, 0, 0]]
    }, 
    {
      "op": "Activation", 
      "name": "resnest_layers2_relu7_fwd", 
      "attrs": {"act_type": "relu"}, 
      "inputs": [[286, 0, 0]]
    }, 
    {
      "op": "null", 
      "name": "resnest_layers2_conv10_weight", 
      "attrs": {
        "__dtype__": "0", 
        "__lr_mult__": "1.0", 
        "__shape__": "(128, 512, 1, 1)", 
        "__storage_type__": "0", 
        "__wd_mult__": "1.0"
      }, 
      "inputs": []
    }, 
    {
      "op": "Convolution", 
      "name": "resnest_layers2_conv10_fwd", 
      "attrs": {
        "dilate": "(1, 1)", 
        "kernel": "(1, 1)", 
        "layout": "NCHW", 
        "no_bias": "True", 
        "num_filter": "128", 
        "num_group": "1", 
        "pad": "(0, 0)", 
        "stride": "(1, 1)"
      }, 
      "inputs": [[287, 0, 0], [288, 0, 0]]
    }, 
    {
      "op": "null", 
      "name": "resnest_layers2_batchnorm8_gamma", 
      "attrs": {
        "__dtype__": "0", 
        "__init__": "ones", 
        "__lr_mult__": "1.0", 
        "__shape__": "(128,)", 
        "__storage_type__": "0", 
        "__wd_mult__": "1.0"
      }, 
      "inputs": []
    }, 
    {
      "op": "null", 
      "name": "resnest_layers2_batchnorm8_beta", 
      "attrs": {
        "__dtype__": "0", 
        "__init__": "zeros", 
        "__lr_mult__": "1.0", 
        "__shape__": "(128,)", 
        "__storage_type__": "0", 
        "__wd_mult__": "1.0"
      }, 
      "inputs": []
    }, 
    {
      "op": "null", 
      "name": "resnest_layers2_batchnorm8_running_mean", 
      "attrs": {
        "__dtype__": "0", 
        "__init__": "zeros", 
        "__lr_mult__": "1.0", 
        "__shape__": "(128,)", 
        "__storage_type__": "0", 
        "__wd_mult__": "1.0"
      }, 
      "inputs": []
    }, 
    {
      "op": "null", 
      "name": "resnest_layers2_batchnorm8_running_var", 
      "attrs": {
        "__dtype__": "0", 
        "__init__": "ones", 
        "__lr_mult__": "1.0", 
        "__shape__": "(128,)", 
        "__storage_type__": "0", 
        "__wd_mult__": "1.0"
      }, 
      "inputs": []
    }, 
    {
      "op": "BatchNorm", 
      "name": "resnest_layers2_batchnorm8_fwd", 
      "attrs": {
        "axis": "1", 
        "eps": "1e-05", 
        "fix_gamma": "False", 
        "momentum": "0.9", 
        "use_global_stats": "False"
      }, 
      "inputs": [[289, 0, 0], [290, 0, 0], [291, 0, 0], [292, 0, 1], [293, 0, 1]]
    }, 
    {
      "op": "Activation", 
      "name": "resnest_layers2_relu8_fwd", 
      "attrs": {"act_type": "relu"}, 
      "inputs": [[294, 0, 0]]
    }, 
    {
      "op": "null", 
      "name": "resnest_layers2_conv11_weight", 
      "attrs": {
        "__dtype__": "0", 
        "__lr_mult__": "1.0", 
        "__shape__": "(256, 64, 3, 3)", 
        "__storage_type__": "0", 
        "__wd_mult__": "1.0"
      }, 
      "inputs": []
    }, 
    {
      "op": "Convolution", 
      "name": "resnest_layers2_conv11_fwd", 
      "attrs": {
        "dilate": "(1, 1)", 
        "kernel": "(3, 3)", 
        "layout": "NCHW", 
        "no_bias": "True", 
        "num_filter": "256", 
        "num_group": "2", 
        "pad": "(1, 1)", 
        "stride": "(1, 1)"
      }, 
      "inputs": [[295, 0, 0], [296, 0, 0]]
    }, 
    {
      "op": "null", 
      "name": "resnest_layers2_batchnorm9_gamma", 
      "attrs": {
        "__dtype__": "0", 
        "__init__": "ones", 
        "__lr_mult__": "1.0", 
        "__shape__": "(256,)", 
        "__storage_type__": "0", 
        "__wd_mult__": "1.0"
      }, 
      "inputs": []
    }, 
    {
      "op": "null", 
      "name": "resnest_layers2_batchnorm9_beta", 
      "attrs": {
        "__dtype__": "0", 
        "__init__": "zeros", 
        "__lr_mult__": "1.0", 
        "__shape__": "(256,)", 
        "__storage_type__": "0", 
        "__wd_mult__": "1.0"
      }, 
      "inputs": []
    }, 
    {
      "op": "null", 
      "name": "resnest_layers2_batchnorm9_running_mean", 
      "attrs": {
        "__dtype__": "0", 
        "__init__": "zeros", 
        "__lr_mult__": "1.0", 
        "__shape__": "(256,)", 
        "__storage_type__": "0", 
        "__wd_mult__": "1.0"
      }, 
      "inputs": []
    }, 
    {
      "op": "null", 
      "name": "resnest_layers2_batchnorm9_running_var", 
      "attrs": {
        "__dtype__": "0", 
        "__init__": "ones", 
        "__lr_mult__": "1.0", 
        "__shape__": "(256,)", 
        "__storage_type__": "0", 
        "__wd_mult__": "1.0"
      }, 
      "inputs": []
    }, 
    {
      "op": "BatchNorm", 
      "name": "resnest_layers2_batchnorm9_fwd", 
      "attrs": {
        "axis": "1", 
        "eps": "1e-05", 
        "fix_gamma": "False", 
        "momentum": "0.9", 
        "use_global_stats": "False"
      }, 
      "inputs": [[297, 0, 0], [298, 0, 0], [299, 0, 0], [300, 0, 1], [301, 0, 1]]
    }, 
    {
      "op": "Activation", 
      "name": "resnest_layers2_relu9_fwd", 
      "attrs": {"act_type": "relu"}, 
      "inputs": [[302, 0, 0]]
    }, 
    {
      "op": "SliceChannel", 
      "name": "resnest_layers2_splitattentionconv2_split0", 
      "attrs": {
        "axis": "1", 
        "num_outputs": "2"
      }, 
      "inputs": [[303, 0, 0]]
    }, 
    {
      "op": "_plus_scalar", 
      "name": "resnest_layers2_splitattentionconv2__plusscalar0", 
      "attrs": {"scalar": "0"}, 
      "inputs": [[304, 0, 0]]
    }, 
    {
      "op": "elemwise_add", 
      "name": "resnest_layers2_splitattentionconv2__plus0", 
      "inputs": [[305, 0, 0], [304, 1, 0]]
    }, 
    {
      "op": "_contrib_AdaptiveAvgPooling2D", 
      "name": "resnest_layers2_splitattentionconv2_adaptiveavgpooling2d0", 
      "attrs": {"output_size": "1"}, 
      "inputs": [[306, 0, 0]]
    }, 
    {
      "op": "null", 
      "name": "resnest_layers2_conv12_weight", 
      "attrs": {
        "__dtype__": "0", 
        "__lr_mult__": "1.0", 
        "__shape__": "(64, 128, 1, 1)", 
        "__storage_type__": "0", 
        "__wd_mult__": "1.0"
      }, 
      "inputs": []
    }, 
    {
      "op": "null", 
      "name": "resnest_layers2_conv12_bias", 
      "attrs": {
        "__dtype__": "0", 
        "__init__": "zeros", 
        "__lr_mult__": "1.0", 
        "__shape__": "(64,)", 
        "__storage_type__": "0", 
        "__wd_mult__": "1.0"
      }, 
      "inputs": []
    }, 
    {
      "op": "Convolution", 
      "name": "resnest_layers2_conv12_fwd", 
      "attrs": {
        "dilate": "(1, 1)", 
        "kernel": "(1, 1)", 
        "layout": "NCHW", 
        "no_bias": "False", 
        "num_filter": "64", 
        "num_group": "1", 
        "pad": "(0, 0)", 
        "stride": "(1, 1)"
      }, 
      "inputs": [[307, 0, 0], [308, 0, 0], [309, 0, 0]]
    }, 
    {
      "op": "null", 
      "name": "resnest_layers2_batchnorm10_gamma", 
      "attrs": {
        "__dtype__": "0", 
        "__init__": "ones", 
        "__lr_mult__": "1.0", 
        "__shape__": "(64,)", 
        "__storage_type__": "0", 
        "__wd_mult__": "1.0"
      }, 
      "inputs": []
    }, 
    {
      "op": "null", 
      "name": "resnest_layers2_batchnorm10_beta", 
      "attrs": {
        "__dtype__": "0", 
        "__init__": "zeros", 
        "__lr_mult__": "1.0", 
        "__shape__": "(64,)", 
        "__storage_type__": "0", 
        "__wd_mult__": "1.0"
      }, 
      "inputs": []
    }, 
    {
      "op": "null", 
      "name": "resnest_layers2_batchnorm10_running_mean", 
      "attrs": {
        "__dtype__": "0", 
        "__init__": "zeros", 
        "__lr_mult__": "1.0", 
        "__shape__": "(64,)", 
        "__storage_type__": "0", 
        "__wd_mult__": "1.0"
      }, 
      "inputs": []
    }, 
    {
      "op": "null", 
      "name": "resnest_layers2_batchnorm10_running_var", 
      "attrs": {
        "__dtype__": "0", 
        "__init__": "ones", 
        "__lr_mult__": "1.0", 
        "__shape__": "(64,)", 
        "__storage_type__": "0", 
        "__wd_mult__": "1.0"
      }, 
      "inputs": []
    }, 
    {
      "op": "BatchNorm", 
      "name": "resnest_layers2_batchnorm10_fwd", 
      "attrs": {
        "axis": "1", 
        "eps": "1e-05", 
        "fix_gamma": "False", 
        "momentum": "0.9", 
        "use_global_stats": "False"
      }, 
      "inputs": [[310, 0, 0], [311, 0, 0], [312, 0, 0], [313, 0, 1], [314, 0, 1]]
    }, 
    {
      "op": "Activation", 
      "name": "resnest_layers2_relu10_fwd", 
      "attrs": {"act_type": "relu"}, 
      "inputs": [[315, 0, 0]]
    }, 
    {
      "op": "null", 
      "name": "resnest_layers2_conv13_weight", 
      "attrs": {
        "__dtype__": "0", 
        "__lr_mult__": "1.0", 
        "__shape__": "(256, 64, 1, 1)", 
        "__storage_type__": "0", 
        "__wd_mult__": "1.0"
      }, 
      "inputs": []
    }, 
    {
      "op": "null", 
      "name": "resnest_layers2_conv13_bias", 
      "attrs": {
        "__dtype__": "0", 
        "__init__": "zeros", 
        "__lr_mult__": "1.0", 
        "__shape__": "(256,)", 
        "__storage_type__": "0", 
        "__wd_mult__": "1.0"
      }, 
      "inputs": []
    }, 
    {
      "op": "Convolution", 
      "name": "resnest_layers2_conv13_fwd", 
      "attrs": {
        "dilate": "(1, 1)", 
        "kernel": "(1, 1)", 
        "layout": "NCHW", 
        "no_bias": "False", 
        "num_filter": "256", 
        "num_group": "1", 
        "pad": "(0, 0)", 
        "stride": "(1, 1)"
      }, 
      "inputs": [[316, 0, 0], [317, 0, 0], [318, 0, 0]]
    }, 
    {
      "op": "Reshape", 
      "name": "resnest_layers2_splitattentionconv2_reshape0", 
      "attrs": {"shape": "(0, 2, 128)"}, 
      "inputs": [[319, 0, 0]]
    }, 
    {
      "op": "softmax", 
      "name": "resnest_layers2_splitattentionconv2_softmax0", 
      "attrs": {"axis": "1"}, 
      "inputs": [[320, 0, 0]]
    }, 
    {
      "op": "Reshape", 
      "name": "resnest_layers2_splitattentionconv2_reshape1", 
      "attrs": {"shape": "(0, -1, 1, 1)"}, 
      "inputs": [[321, 0, 0]]
    }, 
    {
      "op": "SliceChannel", 
      "name": "resnest_layers2_splitattentionconv2_split1", 
      "attrs": {
        "axis": "1", 
        "num_outputs": "2"
      }, 
      "inputs": [[322, 0, 0]]
    }, 
    {
      "op": "broadcast_mul", 
      "name": "resnest_layers2_splitattentionconv2_broadcast_mul0", 
      "inputs": [[323, 0, 0], [304, 0, 0]]
    }, 
    {
      "op": "_plus_scalar", 
      "name": "resnest_layers2_splitattentionconv2__plusscalar1", 
      "attrs": {"scalar": "0"}, 
      "inputs": [[324, 0, 0]]
    }, 
    {
      "op": "broadcast_mul", 
      "name": "resnest_layers2_splitattentionconv2_broadcast_mul1", 
      "inputs": [[323, 1, 0], [304, 1, 0]]
    }, 
    {
      "op": "elemwise_add", 
      "name": "resnest_layers2_splitattentionconv2__plus1", 
      "inputs": [[325, 0, 0], [326, 0, 0]]
    }, 
    {
      "op": "null", 
      "name": "resnest_layers2_conv14_weight", 
      "attrs": {
        "__dtype__": "0", 
        "__lr_mult__": "1.0", 
        "__shape__": "(512, 128, 1, 1)", 
        "__storage_type__": "0", 
        "__wd_mult__": "1.0"
      }, 
      "inputs": []
    }, 
    {
      "op": "Convolution", 
      "name": "resnest_layers2_conv14_fwd", 
      "attrs": {
        "dilate": "(1, 1)", 
        "kernel": "(1, 1)", 
        "layout": "NCHW", 
        "no_bias": "True", 
        "num_filter": "512", 
        "num_group": "1", 
        "pad": "(0, 0)", 
        "stride": "(1, 1)"
      }, 
      "inputs": [[327, 0, 0], [328, 0, 0]]
    }, 
    {
      "op": "null", 
      "name": "resnest_layers2_batchnorm11_gamma", 
      "attrs": {
        "__dtype__": "0", 
        "__init__": "ones", 
        "__lr_mult__": "1.0", 
        "__shape__": "(512,)", 
        "__storage_type__": "0", 
        "__wd_mult__": "1.0"
      }, 
      "inputs": []
    }, 
    {
      "op": "null", 
      "name": "resnest_layers2_batchnorm11_beta", 
      "attrs": {
        "__dtype__": "0", 
        "__init__": "zeros", 
        "__lr_mult__": "1.0", 
        "__shape__": "(512,)", 
        "__storage_type__": "0", 
        "__wd_mult__": "1.0"
      }, 
      "inputs": []
    }, 
    {
      "op": "null", 
      "name": "resnest_layers2_batchnorm11_running_mean", 
      "attrs": {
        "__dtype__": "0", 
        "__init__": "zeros", 
        "__lr_mult__": "1.0", 
        "__shape__": "(512,)", 
        "__storage_type__": "0", 
        "__wd_mult__": "1.0"
      }, 
      "inputs": []
    }, 
    {
      "op": "null", 
      "name": "resnest_layers2_batchnorm11_running_var", 
      "attrs": {
        "__dtype__": "0", 
        "__init__": "ones", 
        "__lr_mult__": "1.0", 
        "__shape__": "(512,)", 
        "__storage_type__": "0", 
        "__wd_mult__": "1.0"
      }, 
      "inputs": []
    }, 
    {
      "op": "BatchNorm", 
      "name": "resnest_layers2_batchnorm11_fwd", 
      "attrs": {
        "axis": "1", 
        "eps": "1e-05", 
        "fix_gamma": "False", 
        "momentum": "0.9", 
        "use_global_stats": "False"
      }, 
      "inputs": [[329, 0, 0], [330, 0, 0], [331, 0, 0], [332, 0, 1], [333, 0, 1]]
    }, 
    {
      "op": "elemwise_add", 
      "name": "resnest_layers2_bottleneck2__plus0", 
      "inputs": [[334, 0, 0], [287, 0, 0]]
    }, 
    {
      "op": "Activation", 
      "name": "resnest_layers2_relu11_fwd", 
      "attrs": {"act_type": "relu"}, 
      "inputs": [[335, 0, 0]]
    }, 
    {
      "op": "null", 
      "name": "resnest_layers2_conv15_weight", 
      "attrs": {
        "__dtype__": "0", 
        "__lr_mult__": "1.0", 
        "__shape__": "(128, 512, 1, 1)", 
        "__storage_type__": "0", 
        "__wd_mult__": "1.0"
      }, 
      "inputs": []
    }, 
    {
      "op": "Convolution", 
      "name": "resnest_layers2_conv15_fwd", 
      "attrs": {
        "dilate": "(1, 1)", 
        "kernel": "(1, 1)", 
        "layout": "NCHW", 
        "no_bias": "True", 
        "num_filter": "128", 
        "num_group": "1", 
        "pad": "(0, 0)", 
        "stride": "(1, 1)"
      }, 
      "inputs": [[336, 0, 0], [337, 0, 0]]
    }, 
    {
      "op": "null", 
      "name": "resnest_layers2_batchnorm12_gamma", 
      "attrs": {
        "__dtype__": "0", 
        "__init__": "ones", 
        "__lr_mult__": "1.0", 
        "__shape__": "(128,)", 
        "__storage_type__": "0", 
        "__wd_mult__": "1.0"
      }, 
      "inputs": []
    }, 
    {
      "op": "null", 
      "name": "resnest_layers2_batchnorm12_beta", 
      "attrs": {
        "__dtype__": "0", 
        "__init__": "zeros", 
        "__lr_mult__": "1.0", 
        "__shape__": "(128,)", 
        "__storage_type__": "0", 
        "__wd_mult__": "1.0"
      }, 
      "inputs": []
    }, 
    {
      "op": "null", 
      "name": "resnest_layers2_batchnorm12_running_mean", 
      "attrs": {
        "__dtype__": "0", 
        "__init__": "zeros", 
        "__lr_mult__": "1.0", 
        "__shape__": "(128,)", 
        "__storage_type__": "0", 
        "__wd_mult__": "1.0"
      }, 
      "inputs": []
    }, 
    {
      "op": "null", 
      "name": "resnest_layers2_batchnorm12_running_var", 
      "attrs": {
        "__dtype__": "0", 
        "__init__": "ones", 
        "__lr_mult__": "1.0", 
        "__shape__": "(128,)", 
        "__storage_type__": "0", 
        "__wd_mult__": "1.0"
      }, 
      "inputs": []
    }, 
    {
      "op": "BatchNorm", 
      "name": "resnest_layers2_batchnorm12_fwd", 
      "attrs": {
        "axis": "1", 
        "eps": "1e-05", 
        "fix_gamma": "False", 
        "momentum": "0.9", 
        "use_global_stats": "False"
      }, 
      "inputs": [[338, 0, 0], [339, 0, 0], [340, 0, 0], [341, 0, 1], [342, 0, 1]]
    }, 
    {
      "op": "Activation", 
      "name": "resnest_layers2_relu12_fwd", 
      "attrs": {"act_type": "relu"}, 
      "inputs": [[343, 0, 0]]
    }, 
    {
      "op": "null", 
      "name": "resnest_layers2_conv16_weight", 
      "attrs": {
        "__dtype__": "0", 
        "__lr_mult__": "1.0", 
        "__shape__": "(256, 64, 3, 3)", 
        "__storage_type__": "0", 
        "__wd_mult__": "1.0"
      }, 
      "inputs": []
    }, 
    {
      "op": "Convolution", 
      "name": "resnest_layers2_conv16_fwd", 
      "attrs": {
        "dilate": "(1, 1)", 
        "kernel": "(3, 3)", 
        "layout": "NCHW", 
        "no_bias": "True", 
        "num_filter": "256", 
        "num_group": "2", 
        "pad": "(1, 1)", 
        "stride": "(1, 1)"
      }, 
      "inputs": [[344, 0, 0], [345, 0, 0]]
    }, 
    {
      "op": "null", 
      "name": "resnest_layers2_batchnorm13_gamma", 
      "attrs": {
        "__dtype__": "0", 
        "__init__": "ones", 
        "__lr_mult__": "1.0", 
        "__shape__": "(256,)", 
        "__storage_type__": "0", 
        "__wd_mult__": "1.0"
      }, 
      "inputs": []
    }, 
    {
      "op": "null", 
      "name": "resnest_layers2_batchnorm13_beta", 
      "attrs": {
        "__dtype__": "0", 
        "__init__": "zeros", 
        "__lr_mult__": "1.0", 
        "__shape__": "(256,)", 
        "__storage_type__": "0", 
        "__wd_mult__": "1.0"
      }, 
      "inputs": []
    }, 
    {
      "op": "null", 
      "name": "resnest_layers2_batchnorm13_running_mean", 
      "attrs": {
        "__dtype__": "0", 
        "__init__": "zeros", 
        "__lr_mult__": "1.0", 
        "__shape__": "(256,)", 
        "__storage_type__": "0", 
        "__wd_mult__": "1.0"
      }, 
      "inputs": []
    }, 
    {
      "op": "null", 
      "name": "resnest_layers2_batchnorm13_running_var", 
      "attrs": {
        "__dtype__": "0", 
        "__init__": "ones", 
        "__lr_mult__": "1.0", 
        "__shape__": "(256,)", 
        "__storage_type__": "0", 
        "__wd_mult__": "1.0"
      }, 
      "inputs": []
    }, 
    {
      "op": "BatchNorm", 
      "name": "resnest_layers2_batchnorm13_fwd", 
      "attrs": {
        "axis": "1", 
        "eps": "1e-05", 
        "fix_gamma": "False", 
        "momentum": "0.9", 
        "use_global_stats": "False"
      }, 
      "inputs": [[346, 0, 0], [347, 0, 0], [348, 0, 0], [349, 0, 1], [350, 0, 1]]
    }, 
    {
      "op": "Activation", 
      "name": "resnest_layers2_relu13_fwd", 
      "attrs": {"act_type": "relu"}, 
      "inputs": [[351, 0, 0]]
    }, 
    {
      "op": "SliceChannel", 
      "name": "resnest_layers2_splitattentionconv3_split0", 
      "attrs": {
        "axis": "1", 
        "num_outputs": "2"
      }, 
      "inputs": [[352, 0, 0]]
    }, 
    {
      "op": "_plus_scalar", 
      "name": "resnest_layers2_splitattentionconv3__plusscalar0", 
      "attrs": {"scalar": "0"}, 
      "inputs": [[353, 0, 0]]
    }, 
    {
      "op": "elemwise_add", 
      "name": "resnest_layers2_splitattentionconv3__plus0", 
      "inputs": [[354, 0, 0], [353, 1, 0]]
    }, 
    {
      "op": "_contrib_AdaptiveAvgPooling2D", 
      "name": "resnest_layers2_splitattentionconv3_adaptiveavgpooling2d0", 
      "attrs": {"output_size": "1"}, 
      "inputs": [[355, 0, 0]]
    }, 
    {
      "op": "null", 
      "name": "resnest_layers2_conv17_weight", 
      "attrs": {
        "__dtype__": "0", 
        "__lr_mult__": "1.0", 
        "__shape__": "(64, 128, 1, 1)", 
        "__storage_type__": "0", 
        "__wd_mult__": "1.0"
      }, 
      "inputs": []
    }, 
    {
      "op": "null", 
      "name": "resnest_layers2_conv17_bias", 
      "attrs": {
        "__dtype__": "0", 
        "__init__": "zeros", 
        "__lr_mult__": "1.0", 
        "__shape__": "(64,)", 
        "__storage_type__": "0", 
        "__wd_mult__": "1.0"
      }, 
      "inputs": []
    }, 
    {
      "op": "Convolution", 
      "name": "resnest_layers2_conv17_fwd", 
      "attrs": {
        "dilate": "(1, 1)", 
        "kernel": "(1, 1)", 
        "layout": "NCHW", 
        "no_bias": "False", 
        "num_filter": "64", 
        "num_group": "1", 
        "pad": "(0, 0)", 
        "stride": "(1, 1)"
      }, 
      "inputs": [[356, 0, 0], [357, 0, 0], [358, 0, 0]]
    }, 
    {
      "op": "null", 
      "name": "resnest_layers2_batchnorm14_gamma", 
      "attrs": {
        "__dtype__": "0", 
        "__init__": "ones", 
        "__lr_mult__": "1.0", 
        "__shape__": "(64,)", 
        "__storage_type__": "0", 
        "__wd_mult__": "1.0"
      }, 
      "inputs": []
    }, 
    {
      "op": "null", 
      "name": "resnest_layers2_batchnorm14_beta", 
      "attrs": {
        "__dtype__": "0", 
        "__init__": "zeros", 
        "__lr_mult__": "1.0", 
        "__shape__": "(64,)", 
        "__storage_type__": "0", 
        "__wd_mult__": "1.0"
      }, 
      "inputs": []
    }, 
    {
      "op": "null", 
      "name": "resnest_layers2_batchnorm14_running_mean", 
      "attrs": {
        "__dtype__": "0", 
        "__init__": "zeros", 
        "__lr_mult__": "1.0", 
        "__shape__": "(64,)", 
        "__storage_type__": "0", 
        "__wd_mult__": "1.0"
      }, 
      "inputs": []
    }, 
    {
      "op": "null", 
      "name": "resnest_layers2_batchnorm14_running_var", 
      "attrs": {
        "__dtype__": "0", 
        "__init__": "ones", 
        "__lr_mult__": "1.0", 
        "__shape__": "(64,)", 
        "__storage_type__": "0", 
        "__wd_mult__": "1.0"
      }, 
      "inputs": []
    }, 
    {
      "op": "BatchNorm", 
      "name": "resnest_layers2_batchnorm14_fwd", 
      "attrs": {
        "axis": "1", 
        "eps": "1e-05", 
        "fix_gamma": "False", 
        "momentum": "0.9", 
        "use_global_stats": "False"
      }, 
      "inputs": [[359, 0, 0], [360, 0, 0], [361, 0, 0], [362, 0, 1], [363, 0, 1]]
    }, 
    {
      "op": "Activation", 
      "name": "resnest_layers2_relu14_fwd", 
      "attrs": {"act_type": "relu"}, 
      "inputs": [[364, 0, 0]]
    }, 
    {
      "op": "null", 
      "name": "resnest_layers2_conv18_weight", 
      "attrs": {
        "__dtype__": "0", 
        "__lr_mult__": "1.0", 
        "__shape__": "(256, 64, 1, 1)", 
        "__storage_type__": "0", 
        "__wd_mult__": "1.0"
      }, 
      "inputs": []
    }, 
    {
      "op": "null", 
      "name": "resnest_layers2_conv18_bias", 
      "attrs": {
        "__dtype__": "0", 
        "__init__": "zeros", 
        "__lr_mult__": "1.0", 
        "__shape__": "(256,)", 
        "__storage_type__": "0", 
        "__wd_mult__": "1.0"
      }, 
      "inputs": []
    }, 
    {
      "op": "Convolution", 
      "name": "resnest_layers2_conv18_fwd", 
      "attrs": {
        "dilate": "(1, 1)", 
        "kernel": "(1, 1)", 
        "layout": "NCHW", 
        "no_bias": "False", 
        "num_filter": "256", 
        "num_group": "1", 
        "pad": "(0, 0)", 
        "stride": "(1, 1)"
      }, 
      "inputs": [[365, 0, 0], [366, 0, 0], [367, 0, 0]]
    }, 
    {
      "op": "Reshape", 
      "name": "resnest_layers2_splitattentionconv3_reshape0", 
      "attrs": {"shape": "(0, 2, 128)"}, 
      "inputs": [[368, 0, 0]]
    }, 
    {
      "op": "softmax", 
      "name": "resnest_layers2_splitattentionconv3_softmax0", 
      "attrs": {"axis": "1"}, 
      "inputs": [[369, 0, 0]]
    }, 
    {
      "op": "Reshape", 
      "name": "resnest_layers2_splitattentionconv3_reshape1", 
      "attrs": {"shape": "(0, -1, 1, 1)"}, 
      "inputs": [[370, 0, 0]]
    }, 
    {
      "op": "SliceChannel", 
      "name": "resnest_layers2_splitattentionconv3_split1", 
      "attrs": {
        "axis": "1", 
        "num_outputs": "2"
      }, 
      "inputs": [[371, 0, 0]]
    }, 
    {
      "op": "broadcast_mul", 
      "name": "resnest_layers2_splitattentionconv3_broadcast_mul0", 
      "inputs": [[372, 0, 0], [353, 0, 0]]
    }, 
    {
      "op": "_plus_scalar", 
      "name": "resnest_layers2_splitattentionconv3__plusscalar1", 
      "attrs": {"scalar": "0"}, 
      "inputs": [[373, 0, 0]]
    }, 
    {
      "op": "broadcast_mul", 
      "name": "resnest_layers2_splitattentionconv3_broadcast_mul1", 
      "inputs": [[372, 1, 0], [353, 1, 0]]
    }, 
    {
      "op": "elemwise_add", 
      "name": "resnest_layers2_splitattentionconv3__plus1", 
      "inputs": [[374, 0, 0], [375, 0, 0]]
    }, 
    {
      "op": "null", 
      "name": "resnest_layers2_conv19_weight", 
      "attrs": {
        "__dtype__": "0", 
        "__lr_mult__": "1.0", 
        "__shape__": "(512, 128, 1, 1)", 
        "__storage_type__": "0", 
        "__wd_mult__": "1.0"
      }, 
      "inputs": []
    }, 
    {
      "op": "Convolution", 
      "name": "resnest_layers2_conv19_fwd", 
      "attrs": {
        "dilate": "(1, 1)", 
        "kernel": "(1, 1)", 
        "layout": "NCHW", 
        "no_bias": "True", 
        "num_filter": "512", 
        "num_group": "1", 
        "pad": "(0, 0)", 
        "stride": "(1, 1)"
      }, 
      "inputs": [[376, 0, 0], [377, 0, 0]]
    }, 
    {
      "op": "null", 
      "name": "resnest_layers2_batchnorm15_gamma", 
      "attrs": {
        "__dtype__": "0", 
        "__init__": "ones", 
        "__lr_mult__": "1.0", 
        "__shape__": "(512,)", 
        "__storage_type__": "0", 
        "__wd_mult__": "1.0"
      }, 
      "inputs": []
    }, 
    {
      "op": "null", 
      "name": "resnest_layers2_batchnorm15_beta", 
      "attrs": {
        "__dtype__": "0", 
        "__init__": "zeros", 
        "__lr_mult__": "1.0", 
        "__shape__": "(512,)", 
        "__storage_type__": "0", 
        "__wd_mult__": "1.0"
      }, 
      "inputs": []
    }, 
    {
      "op": "null", 
      "name": "resnest_layers2_batchnorm15_running_mean", 
      "attrs": {
        "__dtype__": "0", 
        "__init__": "zeros", 
        "__lr_mult__": "1.0", 
        "__shape__": "(512,)", 
        "__storage_type__": "0", 
        "__wd_mult__": "1.0"
      }, 
      "inputs": []
    }, 
    {
      "op": "null", 
      "name": "resnest_layers2_batchnorm15_running_var", 
      "attrs": {
        "__dtype__": "0", 
        "__init__": "ones", 
        "__lr_mult__": "1.0", 
        "__shape__": "(512,)", 
        "__storage_type__": "0", 
        "__wd_mult__": "1.0"
      }, 
      "inputs": []
    }, 
    {
      "op": "BatchNorm", 
      "name": "resnest_layers2_batchnorm15_fwd", 
      "attrs": {
        "axis": "1", 
        "eps": "1e-05", 
        "fix_gamma": "False", 
        "momentum": "0.9", 
        "use_global_stats": "False"
      }, 
      "inputs": [[378, 0, 0], [379, 0, 0], [380, 0, 0], [381, 0, 1], [382, 0, 1]]
    }, 
    {
      "op": "elemwise_add", 
      "name": "resnest_layers2_bottleneck3__plus0", 
      "inputs": [[383, 0, 0], [336, 0, 0]]
    }, 
    {
      "op": "Activation", 
      "name": "resnest_layers2_relu15_fwd", 
      "attrs": {"act_type": "relu"}, 
      "inputs": [[384, 0, 0]]
    }, 
    {
      "op": "null", 
      "name": "resnest_layers3_conv0_weight", 
      "attrs": {
        "__dtype__": "0", 
        "__lr_mult__": "1.0", 
        "__shape__": "(256, 512, 1, 1)", 
        "__storage_type__": "0", 
        "__wd_mult__": "1.0"
      }, 
      "inputs": []
    }, 
    {
      "op": "Convolution", 
      "name": "resnest_layers3_conv0_fwd", 
      "attrs": {
        "dilate": "(1, 1)", 
        "kernel": "(1, 1)", 
        "layout": "NCHW", 
        "no_bias": "True", 
        "num_filter": "256", 
        "num_group": "1", 
        "pad": "(0, 0)", 
        "stride": "(1, 1)"
      }, 
      "inputs": [[385, 0, 0], [386, 0, 0]]
    }, 
    {
      "op": "null", 
      "name": "resnest_layers3_batchnorm0_gamma", 
      "attrs": {
        "__dtype__": "0", 
        "__init__": "ones", 
        "__lr_mult__": "1.0", 
        "__shape__": "(256,)", 
        "__storage_type__": "0", 
        "__wd_mult__": "1.0"
      }, 
      "inputs": []
    }, 
    {
      "op": "null", 
      "name": "resnest_layers3_batchnorm0_beta", 
      "attrs": {
        "__dtype__": "0", 
        "__init__": "zeros", 
        "__lr_mult__": "1.0", 
        "__shape__": "(256,)", 
        "__storage_type__": "0", 
        "__wd_mult__": "1.0"
      }, 
      "inputs": []
    }, 
    {
      "op": "null", 
      "name": "resnest_layers3_batchnorm0_running_mean", 
      "attrs": {
        "__dtype__": "0", 
        "__init__": "zeros", 
        "__lr_mult__": "1.0", 
        "__shape__": "(256,)", 
        "__storage_type__": "0", 
        "__wd_mult__": "1.0"
      }, 
      "inputs": []
    }, 
    {
      "op": "null", 
      "name": "resnest_layers3_batchnorm0_running_var", 
      "attrs": {
        "__dtype__": "0", 
        "__init__": "ones", 
        "__lr_mult__": "1.0", 
        "__shape__": "(256,)", 
        "__storage_type__": "0", 
        "__wd_mult__": "1.0"
      }, 
      "inputs": []
    }, 
    {
      "op": "BatchNorm", 
      "name": "resnest_layers3_batchnorm0_fwd", 
      "attrs": {
        "axis": "1", 
        "eps": "1e-05", 
        "fix_gamma": "False", 
        "momentum": "0.9", 
        "use_global_stats": "False"
      }, 
      "inputs": [[387, 0, 0], [388, 0, 0], [389, 0, 0], [390, 0, 1], [391, 0, 1]]
    }, 
    {
      "op": "Activation", 
      "name": "resnest_layers3_relu0_fwd", 
      "attrs": {"act_type": "relu"}, 
      "inputs": [[392, 0, 0]]
    }, 
    {
      "op": "null", 
      "name": "resnest_layers3_conv1_weight", 
      "attrs": {
        "__dtype__": "0", 
        "__lr_mult__": "1.0", 
        "__shape__": "(512, 128, 3, 3)", 
        "__storage_type__": "0", 
        "__wd_mult__": "1.0"
      }, 
      "inputs": []
    }, 
    {
      "op": "Convolution", 
      "name": "resnest_layers3_conv1_fwd", 
      "attrs": {
        "dilate": "(1, 1)", 
        "kernel": "(3, 3)", 
        "layout": "NCHW", 
        "no_bias": "True", 
        "num_filter": "512", 
        "num_group": "2", 
        "pad": "(1, 1)", 
        "stride": "(1, 1)"
      }, 
      "inputs": [[393, 0, 0], [394, 0, 0]]
    }, 
    {
      "op": "null", 
      "name": "resnest_layers3_batchnorm1_gamma", 
      "attrs": {
        "__dtype__": "0", 
        "__init__": "ones", 
        "__lr_mult__": "1.0", 
        "__shape__": "(512,)", 
        "__storage_type__": "0", 
        "__wd_mult__": "1.0"
      }, 
      "inputs": []
    }, 
    {
      "op": "null", 
      "name": "resnest_layers3_batchnorm1_beta", 
      "attrs": {
        "__dtype__": "0", 
        "__init__": "zeros", 
        "__lr_mult__": "1.0", 
        "__shape__": "(512,)", 
        "__storage_type__": "0", 
        "__wd_mult__": "1.0"
      }, 
      "inputs": []
    }, 
    {
      "op": "null", 
      "name": "resnest_layers3_batchnorm1_running_mean", 
      "attrs": {
        "__dtype__": "0", 
        "__init__": "zeros", 
        "__lr_mult__": "1.0", 
        "__shape__": "(512,)", 
        "__storage_type__": "0", 
        "__wd_mult__": "1.0"
      }, 
      "inputs": []
    }, 
    {
      "op": "null", 
      "name": "resnest_layers3_batchnorm1_running_var", 
      "attrs": {
        "__dtype__": "0", 
        "__init__": "ones", 
        "__lr_mult__": "1.0", 
        "__shape__": "(512,)", 
        "__storage_type__": "0", 
        "__wd_mult__": "1.0"
      }, 
      "inputs": []
    }, 
    {
      "op": "BatchNorm", 
      "name": "resnest_layers3_batchnorm1_fwd", 
      "attrs": {
        "axis": "1", 
        "eps": "1e-05", 
        "fix_gamma": "False", 
        "momentum": "0.9", 
        "use_global_stats": "False"
      }, 
      "inputs": [[395, 0, 0], [396, 0, 0], [397, 0, 0], [398, 0, 1], [399, 0, 1]]
    }, 
    {
      "op": "Activation", 
      "name": "resnest_layers3_relu1_fwd", 
      "attrs": {"act_type": "relu"}, 
      "inputs": [[400, 0, 0]]
    }, 
    {
      "op": "SliceChannel", 
      "name": "resnest_layers3_splitattentionconv0_split0", 
      "attrs": {
        "axis": "1", 
        "num_outputs": "2"
      }, 
      "inputs": [[401, 0, 0]]
    }, 
    {
      "op": "_plus_scalar", 
      "name": "resnest_layers3_splitattentionconv0__plusscalar0", 
      "attrs": {"scalar": "0"}, 
      "inputs": [[402, 0, 0]]
    }, 
    {
      "op": "elemwise_add", 
      "name": "resnest_layers3_splitattentionconv0__plus0", 
      "inputs": [[403, 0, 0], [402, 1, 0]]
    }, 
    {
      "op": "_contrib_AdaptiveAvgPooling2D", 
      "name": "resnest_layers3_splitattentionconv0_adaptiveavgpooling2d0", 
      "attrs": {"output_size": "1"}, 
      "inputs": [[404, 0, 0]]
    }, 
    {
      "op": "null", 
      "name": "resnest_layers3_conv2_weight", 
      "attrs": {
        "__dtype__": "0", 
        "__lr_mult__": "1.0", 
        "__shape__": "(128, 256, 1, 1)", 
        "__storage_type__": "0", 
        "__wd_mult__": "1.0"
      }, 
      "inputs": []
    }, 
    {
      "op": "null", 
      "name": "resnest_layers3_conv2_bias", 
      "attrs": {
        "__dtype__": "0", 
        "__init__": "zeros", 
        "__lr_mult__": "1.0", 
        "__shape__": "(128,)", 
        "__storage_type__": "0", 
        "__wd_mult__": "1.0"
      }, 
      "inputs": []
    }, 
    {
      "op": "Convolution", 
      "name": "resnest_layers3_conv2_fwd", 
      "attrs": {
        "dilate": "(1, 1)", 
        "kernel": "(1, 1)", 
        "layout": "NCHW", 
        "no_bias": "False", 
        "num_filter": "128", 
        "num_group": "1", 
        "pad": "(0, 0)", 
        "stride": "(1, 1)"
      }, 
      "inputs": [[405, 0, 0], [406, 0, 0], [407, 0, 0]]
    }, 
    {
      "op": "null", 
      "name": "resnest_layers3_batchnorm2_gamma", 
      "attrs": {
        "__dtype__": "0", 
        "__init__": "ones", 
        "__lr_mult__": "1.0", 
        "__shape__": "(128,)", 
        "__storage_type__": "0", 
        "__wd_mult__": "1.0"
      }, 
      "inputs": []
    }, 
    {
      "op": "null", 
      "name": "resnest_layers3_batchnorm2_beta", 
      "attrs": {
        "__dtype__": "0", 
        "__init__": "zeros", 
        "__lr_mult__": "1.0", 
        "__shape__": "(128,)", 
        "__storage_type__": "0", 
        "__wd_mult__": "1.0"
      }, 
      "inputs": []
    }, 
    {
      "op": "null", 
      "name": "resnest_layers3_batchnorm2_running_mean", 
      "attrs": {
        "__dtype__": "0", 
        "__init__": "zeros", 
        "__lr_mult__": "1.0", 
        "__shape__": "(128,)", 
        "__storage_type__": "0", 
        "__wd_mult__": "1.0"
      }, 
      "inputs": []
    }, 
    {
      "op": "null", 
      "name": "resnest_layers3_batchnorm2_running_var", 
      "attrs": {
        "__dtype__": "0", 
        "__init__": "ones", 
        "__lr_mult__": "1.0", 
        "__shape__": "(128,)", 
        "__storage_type__": "0", 
        "__wd_mult__": "1.0"
      }, 
      "inputs": []
    }, 
    {
      "op": "BatchNorm", 
      "name": "resnest_layers3_batchnorm2_fwd", 
      "attrs": {
        "axis": "1", 
        "eps": "1e-05", 
        "fix_gamma": "False", 
        "momentum": "0.9", 
        "use_global_stats": "False"
      }, 
      "inputs": [[408, 0, 0], [409, 0, 0], [410, 0, 0], [411, 0, 1], [412, 0, 1]]
    }, 
    {
      "op": "Activation", 
      "name": "resnest_layers3_relu2_fwd", 
      "attrs": {"act_type": "relu"}, 
      "inputs": [[413, 0, 0]]
    }, 
    {
      "op": "null", 
      "name": "resnest_layers3_conv3_weight", 
      "attrs": {
        "__dtype__": "0", 
        "__lr_mult__": "1.0", 
        "__shape__": "(512, 128, 1, 1)", 
        "__storage_type__": "0", 
        "__wd_mult__": "1.0"
      }, 
      "inputs": []
    }, 
    {
      "op": "null", 
      "name": "resnest_layers3_conv3_bias", 
      "attrs": {
        "__dtype__": "0", 
        "__init__": "zeros", 
        "__lr_mult__": "1.0", 
        "__shape__": "(512,)", 
        "__storage_type__": "0", 
        "__wd_mult__": "1.0"
      }, 
      "inputs": []
    }, 
    {
      "op": "Convolution", 
      "name": "resnest_layers3_conv3_fwd", 
      "attrs": {
        "dilate": "(1, 1)", 
        "kernel": "(1, 1)", 
        "layout": "NCHW", 
        "no_bias": "False", 
        "num_filter": "512", 
        "num_group": "1", 
        "pad": "(0, 0)", 
        "stride": "(1, 1)"
      }, 
      "inputs": [[414, 0, 0], [415, 0, 0], [416, 0, 0]]
    }, 
    {
      "op": "Reshape", 
      "name": "resnest_layers3_splitattentionconv0_reshape0", 
      "attrs": {"shape": "(0, 2, 256)"}, 
      "inputs": [[417, 0, 0]]
    }, 
    {
      "op": "softmax", 
      "name": "resnest_layers3_splitattentionconv0_softmax0", 
      "attrs": {"axis": "1"}, 
      "inputs": [[418, 0, 0]]
    }, 
    {
      "op": "Reshape", 
      "name": "resnest_layers3_splitattentionconv0_reshape1", 
      "attrs": {"shape": "(0, -1, 1, 1)"}, 
      "inputs": [[419, 0, 0]]
    }, 
    {
      "op": "SliceChannel", 
      "name": "resnest_layers3_splitattentionconv0_split1", 
      "attrs": {
        "axis": "1", 
        "num_outputs": "2"
      }, 
      "inputs": [[420, 0, 0]]
    }, 
    {
      "op": "broadcast_mul", 
      "name": "resnest_layers3_splitattentionconv0_broadcast_mul0", 
      "inputs": [[421, 0, 0], [402, 0, 0]]
    }, 
    {
      "op": "_plus_scalar", 
      "name": "resnest_layers3_splitattentionconv0__plusscalar1", 
      "attrs": {"scalar": "0"}, 
      "inputs": [[422, 0, 0]]
    }, 
    {
      "op": "broadcast_mul", 
      "name": "resnest_layers3_splitattentionconv0_broadcast_mul1", 
      "inputs": [[421, 1, 0], [402, 1, 0]]
    }, 
    {
      "op": "elemwise_add", 
      "name": "resnest_layers3_splitattentionconv0__plus1", 
      "inputs": [[423, 0, 0], [424, 0, 0]]
    }, 
    {
      "op": "Pooling", 
      "name": "resnest_layers3_pool0_fwd", 
      "attrs": {
        "count_include_pad": "True", 
        "global_pool": "False", 
        "kernel": "(3, 3)", 
        "layout": "NCHW", 
        "pad": "(1, 1)", 
        "pool_type": "avg", 
        "pooling_convention": "valid", 
        "stride": "(2, 2)"
      }, 
      "inputs": [[425, 0, 0]]
    }, 
    {
      "op": "null", 
      "name": "resnest_layers3_conv4_weight", 
      "attrs": {
        "__dtype__": "0", 
        "__lr_mult__": "1.0", 
        "__shape__": "(1024, 256, 1, 1)", 
        "__storage_type__": "0", 
        "__wd_mult__": "1.0"
      }, 
      "inputs": []
    }, 
    {
      "op": "Convolution", 
      "name": "resnest_layers3_conv4_fwd", 
      "attrs": {
        "dilate": "(1, 1)", 
        "kernel": "(1, 1)", 
        "layout": "NCHW", 
        "no_bias": "True", 
        "num_filter": "1024", 
        "num_group": "1", 
        "pad": "(0, 0)", 
        "stride": "(1, 1)"
      }, 
      "inputs": [[426, 0, 0], [427, 0, 0]]
    }, 
    {
      "op": "null", 
      "name": "resnest_layers3_batchnorm3_gamma", 
      "attrs": {
        "__dtype__": "0", 
        "__init__": "ones", 
        "__lr_mult__": "1.0", 
        "__shape__": "(1024,)", 
        "__storage_type__": "0", 
        "__wd_mult__": "1.0"
      }, 
      "inputs": []
    }, 
    {
      "op": "null", 
      "name": "resnest_layers3_batchnorm3_beta", 
      "attrs": {
        "__dtype__": "0", 
        "__init__": "zeros", 
        "__lr_mult__": "1.0", 
        "__shape__": "(1024,)", 
        "__storage_type__": "0", 
        "__wd_mult__": "1.0"
      }, 
      "inputs": []
    }, 
    {
      "op": "null", 
      "name": "resnest_layers3_batchnorm3_running_mean", 
      "attrs": {
        "__dtype__": "0", 
        "__init__": "zeros", 
        "__lr_mult__": "1.0", 
        "__shape__": "(1024,)", 
        "__storage_type__": "0", 
        "__wd_mult__": "1.0"
      }, 
      "inputs": []
    }, 
    {
      "op": "null", 
      "name": "resnest_layers3_batchnorm3_running_var", 
      "attrs": {
        "__dtype__": "0", 
        "__init__": "ones", 
        "__lr_mult__": "1.0", 
        "__shape__": "(1024,)", 
        "__storage_type__": "0", 
        "__wd_mult__": "1.0"
      }, 
      "inputs": []
    }, 
    {
      "op": "BatchNorm", 
      "name": "resnest_layers3_batchnorm3_fwd", 
      "attrs": {
        "axis": "1", 
        "eps": "1e-05", 
        "fix_gamma": "False", 
        "momentum": "0.9", 
        "use_global_stats": "False"
      }, 
      "inputs": [[428, 0, 0], [429, 0, 0], [430, 0, 0], [431, 0, 1], [432, 0, 1]]
    }, 
    {
      "op": "Pooling", 
      "name": "resnest_down3_pool0_fwd", 
      "attrs": {
        "count_include_pad": "False", 
        "global_pool": "False", 
        "kernel": "(2, 2)", 
        "layout": "NCHW", 
        "pad": "(0, 0)", 
        "pool_type": "avg", 
        "pooling_convention": "full", 
        "stride": "(2, 2)"
      }, 
      "inputs": [[385, 0, 0]]
    }, 
    {
      "op": "null", 
      "name": "resnest_down3_conv0_weight", 
      "attrs": {
        "__dtype__": "0", 
        "__lr_mult__": "1.0", 
        "__shape__": "(1024, 512, 1, 1)", 
        "__storage_type__": "0", 
        "__wd_mult__": "1.0"
      }, 
      "inputs": []
    }, 
    {
      "op": "Convolution", 
      "name": "resnest_down3_conv0_fwd", 
      "attrs": {
        "dilate": "(1, 1)", 
        "kernel": "(1, 1)", 
        "layout": "NCHW", 
        "no_bias": "True", 
        "num_filter": "1024", 
        "num_group": "1", 
        "pad": "(0, 0)", 
        "stride": "(1, 1)"
      }, 
      "inputs": [[434, 0, 0], [435, 0, 0]]
    }, 
    {
      "op": "null", 
      "name": "resnest_down3_batchnorm0_gamma", 
      "attrs": {
        "__dtype__": "0", 
        "__init__": "ones", 
        "__lr_mult__": "1.0", 
        "__shape__": "(1024,)", 
        "__storage_type__": "0", 
        "__wd_mult__": "1.0"
      }, 
      "inputs": []
    }, 
    {
      "op": "null", 
      "name": "resnest_down3_batchnorm0_beta", 
      "attrs": {
        "__dtype__": "0", 
        "__init__": "zeros", 
        "__lr_mult__": "1.0", 
        "__shape__": "(1024,)", 
        "__storage_type__": "0", 
        "__wd_mult__": "1.0"
      }, 
      "inputs": []
    }, 
    {
      "op": "null", 
      "name": "resnest_down3_batchnorm0_running_mean", 
      "attrs": {
        "__dtype__": "0", 
        "__init__": "zeros", 
        "__lr_mult__": "1.0", 
        "__shape__": "(1024,)", 
        "__storage_type__": "0", 
        "__wd_mult__": "1.0"
      }, 
      "inputs": []
    }, 
    {
      "op": "null", 
      "name": "resnest_down3_batchnorm0_running_var", 
      "attrs": {
        "__dtype__": "0", 
        "__init__": "ones", 
        "__lr_mult__": "1.0", 
        "__shape__": "(1024,)", 
        "__storage_type__": "0", 
        "__wd_mult__": "1.0"
      }, 
      "inputs": []
    }, 
    {
      "op": "BatchNorm", 
      "name": "resnest_down3_batchnorm0_fwd", 
      "attrs": {
        "axis": "1", 
        "eps": "1e-05", 
        "fix_gamma": "False", 
        "momentum": "0.9", 
        "use_global_stats": "False"
      }, 
      "inputs": [[436, 0, 0], [437, 0, 0], [438, 0, 0], [439, 0, 1], [440, 0, 1]]
    }, 
    {
      "op": "elemwise_add", 
      "name": "resnest_layers3_bottleneck0__plus0", 
      "inputs": [[433, 0, 0], [441, 0, 0]]
    }, 
    {
      "op": "Activation", 
      "name": "resnest_layers3_relu3_fwd", 
      "attrs": {"act_type": "relu"}, 
      "inputs": [[442, 0, 0]]
    }, 
    {
      "op": "null", 
      "name": "resnest_layers3_conv5_weight", 
      "attrs": {
        "__dtype__": "0", 
        "__lr_mult__": "1.0", 
        "__shape__": "(256, 1024, 1, 1)", 
        "__storage_type__": "0", 
        "__wd_mult__": "1.0"
      }, 
      "inputs": []
    }, 
    {
      "op": "Convolution", 
      "name": "resnest_layers3_conv5_fwd", 
      "attrs": {
        "dilate": "(1, 1)", 
        "kernel": "(1, 1)", 
        "layout": "NCHW", 
        "no_bias": "True", 
        "num_filter": "256", 
        "num_group": "1", 
        "pad": "(0, 0)", 
        "stride": "(1, 1)"
      }, 
      "inputs": [[443, 0, 0], [444, 0, 0]]
    }, 
    {
      "op": "null", 
      "name": "resnest_layers3_batchnorm4_gamma", 
      "attrs": {
        "__dtype__": "0", 
        "__init__": "ones", 
        "__lr_mult__": "1.0", 
        "__shape__": "(256,)", 
        "__storage_type__": "0", 
        "__wd_mult__": "1.0"
      }, 
      "inputs": []
    }, 
    {
      "op": "null", 
      "name": "resnest_layers3_batchnorm4_beta", 
      "attrs": {
        "__dtype__": "0", 
        "__init__": "zeros", 
        "__lr_mult__": "1.0", 
        "__shape__": "(256,)", 
        "__storage_type__": "0", 
        "__wd_mult__": "1.0"
      }, 
      "inputs": []
    }, 
    {
      "op": "null", 
      "name": "resnest_layers3_batchnorm4_running_mean", 
      "attrs": {
        "__dtype__": "0", 
        "__init__": "zeros", 
        "__lr_mult__": "1.0", 
        "__shape__": "(256,)", 
        "__storage_type__": "0", 
        "__wd_mult__": "1.0"
      }, 
      "inputs": []
    }, 
    {
      "op": "null", 
      "name": "resnest_layers3_batchnorm4_running_var", 
      "attrs": {
        "__dtype__": "0", 
        "__init__": "ones", 
        "__lr_mult__": "1.0", 
        "__shape__": "(256,)", 
        "__storage_type__": "0", 
        "__wd_mult__": "1.0"
      }, 
      "inputs": []
    }, 
    {
      "op": "BatchNorm", 
      "name": "resnest_layers3_batchnorm4_fwd", 
      "attrs": {
        "axis": "1", 
        "eps": "1e-05", 
        "fix_gamma": "False", 
        "momentum": "0.9", 
        "use_global_stats": "False"
      }, 
      "inputs": [[445, 0, 0], [446, 0, 0], [447, 0, 0], [448, 0, 1], [449, 0, 1]]
    }, 
    {
      "op": "Activation", 
      "name": "resnest_layers3_relu4_fwd", 
      "attrs": {"act_type": "relu"}, 
      "inputs": [[450, 0, 0]]
    }, 
    {
      "op": "null", 
      "name": "resnest_layers3_conv6_weight", 
      "attrs": {
        "__dtype__": "0", 
        "__lr_mult__": "1.0", 
        "__shape__": "(512, 128, 3, 3)", 
        "__storage_type__": "0", 
        "__wd_mult__": "1.0"
      }, 
      "inputs": []
    }, 
    {
      "op": "Convolution", 
      "name": "resnest_layers3_conv6_fwd", 
      "attrs": {
        "dilate": "(1, 1)", 
        "kernel": "(3, 3)", 
        "layout": "NCHW", 
        "no_bias": "True", 
        "num_filter": "512", 
        "num_group": "2", 
        "pad": "(1, 1)", 
        "stride": "(1, 1)"
      }, 
      "inputs": [[451, 0, 0], [452, 0, 0]]
    }, 
    {
      "op": "null", 
      "name": "resnest_layers3_batchnorm5_gamma", 
      "attrs": {
        "__dtype__": "0", 
        "__init__": "ones", 
        "__lr_mult__": "1.0", 
        "__shape__": "(512,)", 
        "__storage_type__": "0", 
        "__wd_mult__": "1.0"
      }, 
      "inputs": []
    }, 
    {
      "op": "null", 
      "name": "resnest_layers3_batchnorm5_beta", 
      "attrs": {
        "__dtype__": "0", 
        "__init__": "zeros", 
        "__lr_mult__": "1.0", 
        "__shape__": "(512,)", 
        "__storage_type__": "0", 
        "__wd_mult__": "1.0"
      }, 
      "inputs": []
    }, 
    {
      "op": "null", 
      "name": "resnest_layers3_batchnorm5_running_mean", 
      "attrs": {
        "__dtype__": "0", 
        "__init__": "zeros", 
        "__lr_mult__": "1.0", 
        "__shape__": "(512,)", 
        "__storage_type__": "0", 
        "__wd_mult__": "1.0"
      }, 
      "inputs": []
    }, 
    {
      "op": "null", 
      "name": "resnest_layers3_batchnorm5_running_var", 
      "attrs": {
        "__dtype__": "0", 
        "__init__": "ones", 
        "__lr_mult__": "1.0", 
        "__shape__": "(512,)", 
        "__storage_type__": "0", 
        "__wd_mult__": "1.0"
      }, 
      "inputs": []
    }, 
    {
      "op": "BatchNorm", 
      "name": "resnest_layers3_batchnorm5_fwd", 
      "attrs": {
        "axis": "1", 
        "eps": "1e-05", 
        "fix_gamma": "False", 
        "momentum": "0.9", 
        "use_global_stats": "False"
      }, 
      "inputs": [[453, 0, 0], [454, 0, 0], [455, 0, 0], [456, 0, 1], [457, 0, 1]]
    }, 
    {
      "op": "Activation", 
      "name": "resnest_layers3_relu5_fwd", 
      "attrs": {"act_type": "relu"}, 
      "inputs": [[458, 0, 0]]
    }, 
    {
      "op": "SliceChannel", 
      "name": "resnest_layers3_splitattentionconv1_split0", 
      "attrs": {
        "axis": "1", 
        "num_outputs": "2"
      }, 
      "inputs": [[459, 0, 0]]
    }, 
    {
      "op": "_plus_scalar", 
      "name": "resnest_layers3_splitattentionconv1__plusscalar0", 
      "attrs": {"scalar": "0"}, 
      "inputs": [[460, 0, 0]]
    }, 
    {
      "op": "elemwise_add", 
      "name": "resnest_layers3_splitattentionconv1__plus0", 
      "inputs": [[461, 0, 0], [460, 1, 0]]
    }, 
    {
      "op": "_contrib_AdaptiveAvgPooling2D", 
      "name": "resnest_layers3_splitattentionconv1_adaptiveavgpooling2d0", 
      "attrs": {"output_size": "1"}, 
      "inputs": [[462, 0, 0]]
    }, 
    {
      "op": "null", 
      "name": "resnest_layers3_conv7_weight", 
      "attrs": {
        "__dtype__": "0", 
        "__lr_mult__": "1.0", 
        "__shape__": "(128, 256, 1, 1)", 
        "__storage_type__": "0", 
        "__wd_mult__": "1.0"
      }, 
      "inputs": []
    }, 
    {
      "op": "null", 
      "name": "resnest_layers3_conv7_bias", 
      "attrs": {
        "__dtype__": "0", 
        "__init__": "zeros", 
        "__lr_mult__": "1.0", 
        "__shape__": "(128,)", 
        "__storage_type__": "0", 
        "__wd_mult__": "1.0"
      }, 
      "inputs": []
    }, 
    {
      "op": "Convolution", 
      "name": "resnest_layers3_conv7_fwd", 
      "attrs": {
        "dilate": "(1, 1)", 
        "kernel": "(1, 1)", 
        "layout": "NCHW", 
        "no_bias": "False", 
        "num_filter": "128", 
        "num_group": "1", 
        "pad": "(0, 0)", 
        "stride": "(1, 1)"
      }, 
      "inputs": [[463, 0, 0], [464, 0, 0], [465, 0, 0]]
    }, 
    {
      "op": "null", 
      "name": "resnest_layers3_batchnorm6_gamma", 
      "attrs": {
        "__dtype__": "0", 
        "__init__": "ones", 
        "__lr_mult__": "1.0", 
        "__shape__": "(128,)", 
        "__storage_type__": "0", 
        "__wd_mult__": "1.0"
      }, 
      "inputs": []
    }, 
    {
      "op": "null", 
      "name": "resnest_layers3_batchnorm6_beta", 
      "attrs": {
        "__dtype__": "0", 
        "__init__": "zeros", 
        "__lr_mult__": "1.0", 
        "__shape__": "(128,)", 
        "__storage_type__": "0", 
        "__wd_mult__": "1.0"
      }, 
      "inputs": []
    }, 
    {
      "op": "null", 
      "name": "resnest_layers3_batchnorm6_running_mean", 
      "attrs": {
        "__dtype__": "0", 
        "__init__": "zeros", 
        "__lr_mult__": "1.0", 
        "__shape__": "(128,)", 
        "__storage_type__": "0", 
        "__wd_mult__": "1.0"
      }, 
      "inputs": []
    }, 
    {
      "op": "null", 
      "name": "resnest_layers3_batchnorm6_running_var", 
      "attrs": {
        "__dtype__": "0", 
        "__init__": "ones", 
        "__lr_mult__": "1.0", 
        "__shape__": "(128,)", 
        "__storage_type__": "0", 
        "__wd_mult__": "1.0"
      }, 
      "inputs": []
    }, 
    {
      "op": "BatchNorm", 
      "name": "resnest_layers3_batchnorm6_fwd", 
      "attrs": {
        "axis": "1", 
        "eps": "1e-05", 
        "fix_gamma": "False", 
        "momentum": "0.9", 
        "use_global_stats": "False"
      }, 
      "inputs": [[466, 0, 0], [467, 0, 0], [468, 0, 0], [469, 0, 1], [470, 0, 1]]
    }, 
    {
      "op": "Activation", 
      "name": "resnest_layers3_relu6_fwd", 
      "attrs": {"act_type": "relu"}, 
      "inputs": [[471, 0, 0]]
    }, 
    {
      "op": "null", 
      "name": "resnest_layers3_conv8_weight", 
      "attrs": {
        "__dtype__": "0", 
        "__lr_mult__": "1.0", 
        "__shape__": "(512, 128, 1, 1)", 
        "__storage_type__": "0", 
        "__wd_mult__": "1.0"
      }, 
      "inputs": []
    }, 
    {
      "op": "null", 
      "name": "resnest_layers3_conv8_bias", 
      "attrs": {
        "__dtype__": "0", 
        "__init__": "zeros", 
        "__lr_mult__": "1.0", 
        "__shape__": "(512,)", 
        "__storage_type__": "0", 
        "__wd_mult__": "1.0"
      }, 
      "inputs": []
    }, 
    {
      "op": "Convolution", 
      "name": "resnest_layers3_conv8_fwd", 
      "attrs": {
        "dilate": "(1, 1)", 
        "kernel": "(1, 1)", 
        "layout": "NCHW", 
        "no_bias": "False", 
        "num_filter": "512", 
        "num_group": "1", 
        "pad": "(0, 0)", 
        "stride": "(1, 1)"
      }, 
      "inputs": [[472, 0, 0], [473, 0, 0], [474, 0, 0]]
    }, 
    {
      "op": "Reshape", 
      "name": "resnest_layers3_splitattentionconv1_reshape0", 
      "attrs": {"shape": "(0, 2, 256)"}, 
      "inputs": [[475, 0, 0]]
    }, 
    {
      "op": "softmax", 
      "name": "resnest_layers3_splitattentionconv1_softmax0", 
      "attrs": {"axis": "1"}, 
      "inputs": [[476, 0, 0]]
    }, 
    {
      "op": "Reshape", 
      "name": "resnest_layers3_splitattentionconv1_reshape1", 
      "attrs": {"shape": "(0, -1, 1, 1)"}, 
      "inputs": [[477, 0, 0]]
    }, 
    {
      "op": "SliceChannel", 
      "name": "resnest_layers3_splitattentionconv1_split1", 
      "attrs": {
        "axis": "1", 
        "num_outputs": "2"
      }, 
      "inputs": [[478, 0, 0]]
    }, 
    {
      "op": "broadcast_mul", 
      "name": "resnest_layers3_splitattentionconv1_broadcast_mul0", 
      "inputs": [[479, 0, 0], [460, 0, 0]]
    }, 
    {
      "op": "_plus_scalar", 
      "name": "resnest_layers3_splitattentionconv1__plusscalar1", 
      "attrs": {"scalar": "0"}, 
      "inputs": [[480, 0, 0]]
    }, 
    {
      "op": "broadcast_mul", 
      "name": "resnest_layers3_splitattentionconv1_broadcast_mul1", 
      "inputs": [[479, 1, 0], [460, 1, 0]]
    }, 
    {
      "op": "elemwise_add", 
      "name": "resnest_layers3_splitattentionconv1__plus1", 
      "inputs": [[481, 0, 0], [482, 0, 0]]
    }, 
    {
      "op": "null", 
      "name": "resnest_layers3_conv9_weight", 
      "attrs": {
        "__dtype__": "0", 
        "__lr_mult__": "1.0", 
        "__shape__": "(1024, 256, 1, 1)", 
        "__storage_type__": "0", 
        "__wd_mult__": "1.0"
      }, 
      "inputs": []
    }, 
    {
      "op": "Convolution", 
      "name": "resnest_layers3_conv9_fwd", 
      "attrs": {
        "dilate": "(1, 1)", 
        "kernel": "(1, 1)", 
        "layout": "NCHW", 
        "no_bias": "True", 
        "num_filter": "1024", 
        "num_group": "1", 
        "pad": "(0, 0)", 
        "stride": "(1, 1)"
      }, 
      "inputs": [[483, 0, 0], [484, 0, 0]]
    }, 
    {
      "op": "null", 
      "name": "resnest_layers3_batchnorm7_gamma", 
      "attrs": {
        "__dtype__": "0", 
        "__init__": "ones", 
        "__lr_mult__": "1.0", 
        "__shape__": "(1024,)", 
        "__storage_type__": "0", 
        "__wd_mult__": "1.0"
      }, 
      "inputs": []
    }, 
    {
      "op": "null", 
      "name": "resnest_layers3_batchnorm7_beta", 
      "attrs": {
        "__dtype__": "0", 
        "__init__": "zeros", 
        "__lr_mult__": "1.0", 
        "__shape__": "(1024,)", 
        "__storage_type__": "0", 
        "__wd_mult__": "1.0"
      }, 
      "inputs": []
    }, 
    {
      "op": "null", 
      "name": "resnest_layers3_batchnorm7_running_mean", 
      "attrs": {
        "__dtype__": "0", 
        "__init__": "zeros", 
        "__lr_mult__": "1.0", 
        "__shape__": "(1024,)", 
        "__storage_type__": "0", 
        "__wd_mult__": "1.0"
      }, 
      "inputs": []
    }, 
    {
      "op": "null", 
      "name": "resnest_layers3_batchnorm7_running_var", 
      "attrs": {
        "__dtype__": "0", 
        "__init__": "ones", 
        "__lr_mult__": "1.0", 
        "__shape__": "(1024,)", 
        "__storage_type__": "0", 
        "__wd_mult__": "1.0"
      }, 
      "inputs": []
    }, 
    {
      "op": "BatchNorm", 
      "name": "resnest_layers3_batchnorm7_fwd", 
      "attrs": {
        "axis": "1", 
        "eps": "1e-05", 
        "fix_gamma": "False", 
        "momentum": "0.9", 
        "use_global_stats": "False"
      }, 
      "inputs": [[485, 0, 0], [486, 0, 0], [487, 0, 0], [488, 0, 1], [489, 0, 1]]
    }, 
    {
      "op": "elemwise_add", 
      "name": "resnest_layers3_bottleneck1__plus0", 
      "inputs": [[490, 0, 0], [443, 0, 0]]
    }, 
    {
      "op": "Activation", 
      "name": "resnest_layers3_relu7_fwd", 
      "attrs": {"act_type": "relu"}, 
      "inputs": [[491, 0, 0]]
    }, 
    {
      "op": "null", 
      "name": "resnest_layers3_conv10_weight", 
      "attrs": {
        "__dtype__": "0", 
        "__lr_mult__": "1.0", 
        "__shape__": "(256, 1024, 1, 1)", 
        "__storage_type__": "0", 
        "__wd_mult__": "1.0"
      }, 
      "inputs": []
    }, 
    {
      "op": "Convolution", 
      "name": "resnest_layers3_conv10_fwd", 
      "attrs": {
        "dilate": "(1, 1)", 
        "kernel": "(1, 1)", 
        "layout": "NCHW", 
        "no_bias": "True", 
        "num_filter": "256", 
        "num_group": "1", 
        "pad": "(0, 0)", 
        "stride": "(1, 1)"
      }, 
      "inputs": [[492, 0, 0], [493, 0, 0]]
    }, 
    {
      "op": "null", 
      "name": "resnest_layers3_batchnorm8_gamma", 
      "attrs": {
        "__dtype__": "0", 
        "__init__": "ones", 
        "__lr_mult__": "1.0", 
        "__shape__": "(256,)", 
        "__storage_type__": "0", 
        "__wd_mult__": "1.0"
      }, 
      "inputs": []
    }, 
    {
      "op": "null", 
      "name": "resnest_layers3_batchnorm8_beta", 
      "attrs": {
        "__dtype__": "0", 
        "__init__": "zeros", 
        "__lr_mult__": "1.0", 
        "__shape__": "(256,)", 
        "__storage_type__": "0", 
        "__wd_mult__": "1.0"
      }, 
      "inputs": []
    }, 
    {
      "op": "null", 
      "name": "resnest_layers3_batchnorm8_running_mean", 
      "attrs": {
        "__dtype__": "0", 
        "__init__": "zeros", 
        "__lr_mult__": "1.0", 
        "__shape__": "(256,)", 
        "__storage_type__": "0", 
        "__wd_mult__": "1.0"
      }, 
      "inputs": []
    }, 
    {
      "op": "null", 
      "name": "resnest_layers3_batchnorm8_running_var", 
      "attrs": {
        "__dtype__": "0", 
        "__init__": "ones", 
        "__lr_mult__": "1.0", 
        "__shape__": "(256,)", 
        "__storage_type__": "0", 
        "__wd_mult__": "1.0"
      }, 
      "inputs": []
    }, 
    {
      "op": "BatchNorm", 
      "name": "resnest_layers3_batchnorm8_fwd", 
      "attrs": {
        "axis": "1", 
        "eps": "1e-05", 
        "fix_gamma": "False", 
        "momentum": "0.9", 
        "use_global_stats": "False"
      }, 
      "inputs": [[494, 0, 0], [495, 0, 0], [496, 0, 0], [497, 0, 1], [498, 0, 1]]
    }, 
    {
      "op": "Activation", 
      "name": "resnest_layers3_relu8_fwd", 
      "attrs": {"act_type": "relu"}, 
      "inputs": [[499, 0, 0]]
    }, 
    {
      "op": "null", 
      "name": "resnest_layers3_conv11_weight", 
      "attrs": {
        "__dtype__": "0", 
        "__lr_mult__": "1.0", 
        "__shape__": "(512, 128, 3, 3)", 
        "__storage_type__": "0", 
        "__wd_mult__": "1.0"
      }, 
      "inputs": []
    }, 
    {
      "op": "Convolution", 
      "name": "resnest_layers3_conv11_fwd", 
      "attrs": {
        "dilate": "(1, 1)", 
        "kernel": "(3, 3)", 
        "layout": "NCHW", 
        "no_bias": "True", 
        "num_filter": "512", 
        "num_group": "2", 
        "pad": "(1, 1)", 
        "stride": "(1, 1)"
      }, 
      "inputs": [[500, 0, 0], [501, 0, 0]]
    }, 
    {
      "op": "null", 
      "name": "resnest_layers3_batchnorm9_gamma", 
      "attrs": {
        "__dtype__": "0", 
        "__init__": "ones", 
        "__lr_mult__": "1.0", 
        "__shape__": "(512,)", 
        "__storage_type__": "0", 
        "__wd_mult__": "1.0"
      }, 
      "inputs": []
    }, 
    {
      "op": "null", 
      "name": "resnest_layers3_batchnorm9_beta", 
      "attrs": {
        "__dtype__": "0", 
        "__init__": "zeros", 
        "__lr_mult__": "1.0", 
        "__shape__": "(512,)", 
        "__storage_type__": "0", 
        "__wd_mult__": "1.0"
      }, 
      "inputs": []
    }, 
    {
      "op": "null", 
      "name": "resnest_layers3_batchnorm9_running_mean", 
      "attrs": {
        "__dtype__": "0", 
        "__init__": "zeros", 
        "__lr_mult__": "1.0", 
        "__shape__": "(512,)", 
        "__storage_type__": "0", 
        "__wd_mult__": "1.0"
      }, 
      "inputs": []
    }, 
    {
      "op": "null", 
      "name": "resnest_layers3_batchnorm9_running_var", 
      "attrs": {
        "__dtype__": "0", 
        "__init__": "ones", 
        "__lr_mult__": "1.0", 
        "__shape__": "(512,)", 
        "__storage_type__": "0", 
        "__wd_mult__": "1.0"
      }, 
      "inputs": []
    }, 
    {
      "op": "BatchNorm", 
      "name": "resnest_layers3_batchnorm9_fwd", 
      "attrs": {
        "axis": "1", 
        "eps": "1e-05", 
        "fix_gamma": "False", 
        "momentum": "0.9", 
        "use_global_stats": "False"
      }, 
      "inputs": [[502, 0, 0], [503, 0, 0], [504, 0, 0], [505, 0, 1], [506, 0, 1]]
    }, 
    {
      "op": "Activation", 
      "name": "resnest_layers3_relu9_fwd", 
      "attrs": {"act_type": "relu"}, 
      "inputs": [[507, 0, 0]]
    }, 
    {
      "op": "SliceChannel", 
      "name": "resnest_layers3_splitattentionconv2_split0", 
      "attrs": {
        "axis": "1", 
        "num_outputs": "2"
      }, 
      "inputs": [[508, 0, 0]]
    }, 
    {
      "op": "_plus_scalar", 
      "name": "resnest_layers3_splitattentionconv2__plusscalar0", 
      "attrs": {"scalar": "0"}, 
      "inputs": [[509, 0, 0]]
    }, 
    {
      "op": "elemwise_add", 
      "name": "resnest_layers3_splitattentionconv2__plus0", 
      "inputs": [[510, 0, 0], [509, 1, 0]]
    }, 
    {
      "op": "_contrib_AdaptiveAvgPooling2D", 
      "name": "resnest_layers3_splitattentionconv2_adaptiveavgpooling2d0", 
      "attrs": {"output_size": "1"}, 
      "inputs": [[511, 0, 0]]
    }, 
    {
      "op": "null", 
      "name": "resnest_layers3_conv12_weight", 
      "attrs": {
        "__dtype__": "0", 
        "__lr_mult__": "1.0", 
        "__shape__": "(128, 256, 1, 1)", 
        "__storage_type__": "0", 
        "__wd_mult__": "1.0"
      }, 
      "inputs": []
    }, 
    {
      "op": "null", 
      "name": "resnest_layers3_conv12_bias", 
      "attrs": {
        "__dtype__": "0", 
        "__init__": "zeros", 
        "__lr_mult__": "1.0", 
        "__shape__": "(128,)", 
        "__storage_type__": "0", 
        "__wd_mult__": "1.0"
      }, 
      "inputs": []
    }, 
    {
      "op": "Convolution", 
      "name": "resnest_layers3_conv12_fwd", 
      "attrs": {
        "dilate": "(1, 1)", 
        "kernel": "(1, 1)", 
        "layout": "NCHW", 
        "no_bias": "False", 
        "num_filter": "128", 
        "num_group": "1", 
        "pad": "(0, 0)", 
        "stride": "(1, 1)"
      }, 
      "inputs": [[512, 0, 0], [513, 0, 0], [514, 0, 0]]
    }, 
    {
      "op": "null", 
      "name": "resnest_layers3_batchnorm10_gamma", 
      "attrs": {
        "__dtype__": "0", 
        "__init__": "ones", 
        "__lr_mult__": "1.0", 
        "__shape__": "(128,)", 
        "__storage_type__": "0", 
        "__wd_mult__": "1.0"
      }, 
      "inputs": []
    }, 
    {
      "op": "null", 
      "name": "resnest_layers3_batchnorm10_beta", 
      "attrs": {
        "__dtype__": "0", 
        "__init__": "zeros", 
        "__lr_mult__": "1.0", 
        "__shape__": "(128,)", 
        "__storage_type__": "0", 
        "__wd_mult__": "1.0"
      }, 
      "inputs": []
    }, 
    {
      "op": "null", 
      "name": "resnest_layers3_batchnorm10_running_mean", 
      "attrs": {
        "__dtype__": "0", 
        "__init__": "zeros", 
        "__lr_mult__": "1.0", 
        "__shape__": "(128,)", 
        "__storage_type__": "0", 
        "__wd_mult__": "1.0"
      }, 
      "inputs": []
    }, 
    {
      "op": "null", 
      "name": "resnest_layers3_batchnorm10_running_var", 
      "attrs": {
        "__dtype__": "0", 
        "__init__": "ones", 
        "__lr_mult__": "1.0", 
        "__shape__": "(128,)", 
        "__storage_type__": "0", 
        "__wd_mult__": "1.0"
      }, 
      "inputs": []
    }, 
    {
      "op": "BatchNorm", 
      "name": "resnest_layers3_batchnorm10_fwd", 
      "attrs": {
        "axis": "1", 
        "eps": "1e-05", 
        "fix_gamma": "False", 
        "momentum": "0.9", 
        "use_global_stats": "False"
      }, 
      "inputs": [[515, 0, 0], [516, 0, 0], [517, 0, 0], [518, 0, 1], [519, 0, 1]]
    }, 
    {
      "op": "Activation", 
      "name": "resnest_layers3_relu10_fwd", 
      "attrs": {"act_type": "relu"}, 
      "inputs": [[520, 0, 0]]
    }, 
    {
      "op": "null", 
      "name": "resnest_layers3_conv13_weight", 
      "attrs": {
        "__dtype__": "0", 
        "__lr_mult__": "1.0", 
        "__shape__": "(512, 128, 1, 1)", 
        "__storage_type__": "0", 
        "__wd_mult__": "1.0"
      }, 
      "inputs": []
    }, 
    {
      "op": "null", 
      "name": "resnest_layers3_conv13_bias", 
      "attrs": {
        "__dtype__": "0", 
        "__init__": "zeros", 
        "__lr_mult__": "1.0", 
        "__shape__": "(512,)", 
        "__storage_type__": "0", 
        "__wd_mult__": "1.0"
      }, 
      "inputs": []
    }, 
    {
      "op": "Convolution", 
      "name": "resnest_layers3_conv13_fwd", 
      "attrs": {
        "dilate": "(1, 1)", 
        "kernel": "(1, 1)", 
        "layout": "NCHW", 
        "no_bias": "False", 
        "num_filter": "512", 
        "num_group": "1", 
        "pad": "(0, 0)", 
        "stride": "(1, 1)"
      }, 
      "inputs": [[521, 0, 0], [522, 0, 0], [523, 0, 0]]
    }, 
    {
      "op": "Reshape", 
      "name": "resnest_layers3_splitattentionconv2_reshape0", 
      "attrs": {"shape": "(0, 2, 256)"}, 
      "inputs": [[524, 0, 0]]
    }, 
    {
      "op": "softmax", 
      "name": "resnest_layers3_splitattentionconv2_softmax0", 
      "attrs": {"axis": "1"}, 
      "inputs": [[525, 0, 0]]
    }, 
    {
      "op": "Reshape", 
      "name": "resnest_layers3_splitattentionconv2_reshape1", 
      "attrs": {"shape": "(0, -1, 1, 1)"}, 
      "inputs": [[526, 0, 0]]
    }, 
    {
      "op": "SliceChannel", 
      "name": "resnest_layers3_splitattentionconv2_split1", 
      "attrs": {
        "axis": "1", 
        "num_outputs": "2"
      }, 
      "inputs": [[527, 0, 0]]
    }, 
    {
      "op": "broadcast_mul", 
      "name": "resnest_layers3_splitattentionconv2_broadcast_mul0", 
      "inputs": [[528, 0, 0], [509, 0, 0]]
    }, 
    {
      "op": "_plus_scalar", 
      "name": "resnest_layers3_splitattentionconv2__plusscalar1", 
      "attrs": {"scalar": "0"}, 
      "inputs": [[529, 0, 0]]
    }, 
    {
      "op": "broadcast_mul", 
      "name": "resnest_layers3_splitattentionconv2_broadcast_mul1", 
      "inputs": [[528, 1, 0], [509, 1, 0]]
    }, 
    {
      "op": "elemwise_add", 
      "name": "resnest_layers3_splitattentionconv2__plus1", 
      "inputs": [[530, 0, 0], [531, 0, 0]]
    }, 
    {
      "op": "null", 
      "name": "resnest_layers3_conv14_weight", 
      "attrs": {
        "__dtype__": "0", 
        "__lr_mult__": "1.0", 
        "__shape__": "(1024, 256, 1, 1)", 
        "__storage_type__": "0", 
        "__wd_mult__": "1.0"
      }, 
      "inputs": []
    }, 
    {
      "op": "Convolution", 
      "name": "resnest_layers3_conv14_fwd", 
      "attrs": {
        "dilate": "(1, 1)", 
        "kernel": "(1, 1)", 
        "layout": "NCHW", 
        "no_bias": "True", 
        "num_filter": "1024", 
        "num_group": "1", 
        "pad": "(0, 0)", 
        "stride": "(1, 1)"
      }, 
      "inputs": [[532, 0, 0], [533, 0, 0]]
    }, 
    {
      "op": "null", 
      "name": "resnest_layers3_batchnorm11_gamma", 
      "attrs": {
        "__dtype__": "0", 
        "__init__": "ones", 
        "__lr_mult__": "1.0", 
        "__shape__": "(1024,)", 
        "__storage_type__": "0", 
        "__wd_mult__": "1.0"
      }, 
      "inputs": []
    }, 
    {
      "op": "null", 
      "name": "resnest_layers3_batchnorm11_beta", 
      "attrs": {
        "__dtype__": "0", 
        "__init__": "zeros", 
        "__lr_mult__": "1.0", 
        "__shape__": "(1024,)", 
        "__storage_type__": "0", 
        "__wd_mult__": "1.0"
      }, 
      "inputs": []
    }, 
    {
      "op": "null", 
      "name": "resnest_layers3_batchnorm11_running_mean", 
      "attrs": {
        "__dtype__": "0", 
        "__init__": "zeros", 
        "__lr_mult__": "1.0", 
        "__shape__": "(1024,)", 
        "__storage_type__": "0", 
        "__wd_mult__": "1.0"
      }, 
      "inputs": []
    }, 
    {
      "op": "null", 
      "name": "resnest_layers3_batchnorm11_running_var", 
      "attrs": {
        "__dtype__": "0", 
        "__init__": "ones", 
        "__lr_mult__": "1.0", 
        "__shape__": "(1024,)", 
        "__storage_type__": "0", 
        "__wd_mult__": "1.0"
      }, 
      "inputs": []
    }, 
    {
      "op": "BatchNorm", 
      "name": "resnest_layers3_batchnorm11_fwd", 
      "attrs": {
        "axis": "1", 
        "eps": "1e-05", 
        "fix_gamma": "False", 
        "momentum": "0.9", 
        "use_global_stats": "False"
      }, 
      "inputs": [[534, 0, 0], [535, 0, 0], [536, 0, 0], [537, 0, 1], [538, 0, 1]]
    }, 
    {
      "op": "elemwise_add", 
      "name": "resnest_layers3_bottleneck2__plus0", 
      "inputs": [[539, 0, 0], [492, 0, 0]]
    }, 
    {
      "op": "Activation", 
      "name": "resnest_layers3_relu11_fwd", 
      "attrs": {"act_type": "relu"}, 
      "inputs": [[540, 0, 0]]
    }, 
    {
      "op": "null", 
      "name": "resnest_layers3_conv15_weight", 
      "attrs": {
        "__dtype__": "0", 
        "__lr_mult__": "1.0", 
        "__shape__": "(256, 1024, 1, 1)", 
        "__storage_type__": "0", 
        "__wd_mult__": "1.0"
      }, 
      "inputs": []
    }, 
    {
      "op": "Convolution", 
      "name": "resnest_layers3_conv15_fwd", 
      "attrs": {
        "dilate": "(1, 1)", 
        "kernel": "(1, 1)", 
        "layout": "NCHW", 
        "no_bias": "True", 
        "num_filter": "256", 
        "num_group": "1", 
        "pad": "(0, 0)", 
        "stride": "(1, 1)"
      }, 
      "inputs": [[541, 0, 0], [542, 0, 0]]
    }, 
    {
      "op": "null", 
      "name": "resnest_layers3_batchnorm12_gamma", 
      "attrs": {
        "__dtype__": "0", 
        "__init__": "ones", 
        "__lr_mult__": "1.0", 
        "__shape__": "(256,)", 
        "__storage_type__": "0", 
        "__wd_mult__": "1.0"
      }, 
      "inputs": []
    }, 
    {
      "op": "null", 
      "name": "resnest_layers3_batchnorm12_beta", 
      "attrs": {
…
        "__shape__": "(256,)", 
        "__storage_type__": "0", 
        "__wd_mult__": "1.0"
      }, 
      "inputs": []
    }, 
    {
      "op": "null", 
      "name": "resnest_layers4_batchnorm2_beta", 
      "attrs": {
        "__dtype__": "0", 
        "__init__": "zeros", 
        "__lr_mult__": "1.0", 
        "__shape__": "(256,)", 
        "__storage_type__": "0", 
        "__wd_mult__": "1.0"
      }, 
      "inputs": []
    }, 
    {
      "op": "null", 
      "name": "resnest_layers4_batchnorm2_running_mean", 
      "attrs": {
        "__dtype__": "0", 
        "__init__": "zeros", 
        "__lr_mult__": "1.0", 
        "__shape__": "(256,)", 
        "__storage_type__": "0", 
        "__wd_mult__": "1.0"
      }, 
      "inputs": []
    }, 
    {
      "op": "null", 
      "name": "resnest_layers4_batchnorm2_running_var", 
      "attrs": {
        "__dtype__": "0", 
        "__init__": "ones", 
        "__lr_mult__": "1.0", 
        "__shape__": "(256,)", 
        "__storage_type__": "0", 
        "__wd_mult__": "1.0"
      }, 
      "inputs": []
    }, 
    {
      "op": "BatchNorm", 
      "name": "resnest_layers4_batchnorm2_fwd", 
      "attrs": {
        "axis": "1", 
        "eps": "1e-05", 
        "fix_gamma": "False", 
        "momentum": "0.9", 
        "use_global_stats": "False"
      }, 
      "inputs": [[711, 0, 0], [712, 0, 0], [713, 0, 0], [714, 0, 1], [715, 0, 1]]
    }, 
    {
      "op": "Activation", 
      "name": "resnest_layers4_relu2_fwd", 
      "attrs": {"act_type": "relu"}, 
      "inputs": [[716, 0, 0]]
    }, 
    {
      "op": "null", 
      "name": "resnest_layers4_conv3_weight", 
      "attrs": {
        "__dtype__": "0", 
        "__lr_mult__": "1.0", 
        "__shape__": "(1024, 256, 1, 1)", 
        "__storage_type__": "0", 
        "__wd_mult__": "1.0"
      }, 
      "inputs": []
    }, 
    {
      "op": "null", 
      "name": "resnest_layers4_conv3_bias", 
      "attrs": {
        "__dtype__": "0", 
        "__init__": "zeros", 
        "__lr_mult__": "1.0", 
        "__shape__": "(1024,)", 
        "__storage_type__": "0", 
        "__wd_mult__": "1.0"
      }, 
      "inputs": []
    }, 
    {
      "op": "Convolution", 
      "name": "resnest_layers4_conv3_fwd", 
      "attrs": {
        "dilate": "(1, 1)", 
        "kernel": "(1, 1)", 
        "layout": "NCHW", 
        "no_bias": "False", 
        "num_filter": "1024", 
        "num_group": "1", 
        "pad": "(0, 0)", 
        "stride": "(1, 1)"
      }, 
      "inputs": [[717, 0, 0], [718, 0, 0], [719, 0, 0]]
    }, 
    {
      "op": "Reshape", 
      "name": "resnest_layers4_splitattentionconv0_reshape0", 
      "attrs": {"shape": "(0, 2, 512)"}, 
      "inputs": [[720, 0, 0]]
    }, 
    {
      "op": "softmax", 
      "name": "resnest_layers4_splitattentionconv0_softmax0", 
      "attrs": {"axis": "1"}, 
      "inputs": [[721, 0, 0]]
    }, 
    {
      "op": "Reshape", 
      "name": "resnest_layers4_splitattentionconv0_reshape1", 
      "attrs": {"shape": "(0, -1, 1, 1)"}, 
      "inputs": [[722, 0, 0]]
    }, 
    {
      "op": "SliceChannel", 
      "name": "resnest_layers4_splitattentionconv0_split1", 
      "attrs": {
        "axis": "1", 
        "num_outputs": "2"
      }, 
      "inputs": [[723, 0, 0]]
    }, 
    {
      "op": "broadcast_mul", 
      "name": "resnest_layers4_splitattentionconv0_broadcast_mul0", 
      "inputs": [[724, 0, 0], [705, 0, 0]]
    }, 
    {
      "op": "_plus_scalar", 
      "name": "resnest_layers4_splitattentionconv0__plusscalar1", 
      "attrs": {"scalar": "0"}, 
      "inputs": [[725, 0, 0]]
    }, 
    {
      "op": "broadcast_mul", 
      "name": "resnest_layers4_splitattentionconv0_broadcast_mul1", 
      "inputs": [[724, 1, 0], [705, 1, 0]]
    }, 
    {
      "op": "elemwise_add", 
      "name": "resnest_layers4_splitattentionconv0__plus1", 
      "inputs": [[726, 0, 0], [727, 0, 0]]
    }, 
    {
      "op": "Pooling", 
      "name": "resnest_layers4_pool0_fwd", 
      "attrs": {
        "count_include_pad": "True", 
        "global_pool": "False", 
        "kernel": "(3, 3)", 
        "layout": "NCHW", 
        "pad": "(1, 1)", 
        "pool_type": "avg", 
        "pooling_convention": "valid", 
        "stride": "(2, 2)"
      }, 
      "inputs": [[728, 0, 0]]
    }, 
    {
      "op": "null", 
      "name": "resnest_layers4_conv4_weight", 
      "attrs": {
        "__dtype__": "0", 
        "__lr_mult__": "1.0", 
        "__shape__": "(2048, 512, 1, 1)", 
        "__storage_type__": "0", 
        "__wd_mult__": "1.0"
      }, 
      "inputs": []
    }, 
    {
      "op": "Convolution", 
      "name": "resnest_layers4_conv4_fwd", 
      "attrs": {
        "dilate": "(1, 1)", 
        "kernel": "(1, 1)", 
        "layout": "NCHW", 
        "no_bias": "True", 
        "num_filter": "2048", 
        "num_group": "1", 
        "pad": "(0, 0)", 
        "stride": "(1, 1)"
      }, 
      "inputs": [[729, 0, 0], [730, 0, 0]]
    }, 
    {
      "op": "null", 
      "name": "resnest_layers4_batchnorm3_gamma", 
      "attrs": {
        "__dtype__": "0", 
        "__init__": "ones", 
        "__lr_mult__": "1.0", 
        "__shape__": "(2048,)", 
        "__storage_type__": "0", 
        "__wd_mult__": "1.0"
      }, 
      "inputs": []
    }, 
    {
      "op": "null", 
      "name": "resnest_layers4_batchnorm3_beta", 
      "attrs": {
        "__dtype__": "0", 
        "__init__": "zeros", 
        "__lr_mult__": "1.0", 
        "__shape__": "(2048,)", 
        "__storage_type__": "0", 
        "__wd_mult__": "1.0"
      }, 
      "inputs": []
    }, 
    {
      "op": "null", 
      "name": "resnest_layers4_batchnorm3_running_mean", 
      "attrs": {
        "__dtype__": "0", 
        "__init__": "zeros", 
        "__lr_mult__": "1.0", 
        "__shape__": "(2048,)", 
        "__storage_type__": "0", 
        "__wd_mult__": "1.0"
      }, 
      "inputs": []
    }, 
    {
      "op": "null", 
      "name": "resnest_layers4_batchnorm3_running_var", 
      "attrs": {
        "__dtype__": "0", 
        "__init__": "ones", 
        "__lr_mult__": "1.0", 
        "__shape__": "(2048,)", 
        "__storage_type__": "0", 
        "__wd_mult__": "1.0"
      }, 
      "inputs": []
    }, 
    {
      "op": "BatchNorm", 
      "name": "resnest_layers4_batchnorm3_fwd", 
      "attrs": {
        "axis": "1", 
        "eps": "1e-05", 
        "fix_gamma": "False", 
        "momentum": "0.9", 
        "use_global_stats": "False"
      }, 
      "inputs": [[731, 0, 0], [732, 0, 0], [733, 0, 0], [734, 0, 1], [735, 0, 1]]
    }, 
    {
      "op": "Pooling", 
      "name": "resnest_down4_pool0_fwd", 
      "attrs": {
        "count_include_pad": "False", 
        "global_pool": "False", 
        "kernel": "(2, 2)", 
        "layout": "NCHW", 
        "pad": "(0, 0)", 
        "pool_type": "avg", 
        "pooling_convention": "full", 
        "stride": "(2, 2)"
      }, 
      "inputs": [[688, 0, 0]]
    }, 
    {
      "op": "null", 
      "name": "resnest_down4_conv0_weight", 
      "attrs": {
        "__dtype__": "0", 
        "__lr_mult__": "1.0", 
        "__shape__": "(2048, 1024, 1, 1)", 
        "__storage_type__": "0", 
        "__wd_mult__": "1.0"
      }, 
      "inputs": []
    }, 
    {
      "op": "Convolution", 
      "name": "resnest_down4_conv0_fwd", 
      "attrs": {
        "dilate": "(1, 1)", 
        "kernel": "(1, 1)", 
        "layout": "NCHW", 
        "no_bias": "True", 
        "num_filter": "2048", 
        "num_group": "1", 
        "pad": "(0, 0)", 
        "stride": "(1, 1)"
      }, 
      "inputs": [[737, 0, 0], [738, 0, 0]]
    }, 
    {
      "op": "null", 
      "name": "resnest_down4_batchnorm0_gamma", 
      "attrs": {
        "__dtype__": "0", 
        "__init__": "ones", 
        "__lr_mult__": "1.0", 
        "__shape__": "(2048,)", 
        "__storage_type__": "0", 
        "__wd_mult__": "1.0"
      }, 
      "inputs": []
    }, 
    {
      "op": "null", 
      "name": "resnest_down4_batchnorm0_beta", 
      "attrs": {
        "__dtype__": "0", 
        "__init__": "zeros", 
        "__lr_mult__": "1.0", 
        "__shape__": "(2048,)", 
        "__storage_type__": "0", 
        "__wd_mult__": "1.0"
      }, 
      "inputs": []
    }, 
    {
      "op": "null", 
      "name": "resnest_down4_batchnorm0_running_mean", 
      "attrs": {
        "__dtype__": "0", 
        "__init__": "zeros", 
        "__lr_mult__": "1.0", 
        "__shape__": "(2048,)", 
        "__storage_type__": "0", 
        "__wd_mult__": "1.0"
      }, 
      "inputs": []
    }, 
    {
      "op": "null", 
      "name": "resnest_down4_batchnorm0_running_var", 
      "attrs": {
        "__dtype__": "0", 
        "__init__": "ones", 
        "__lr_mult__": "1.0", 
        "__shape__": "(2048,)", 
        "__storage_type__": "0", 
        "__wd_mult__": "1.0"
      }, 
      "inputs": []
    }, 
    {
      "op": "BatchNorm", 
      "name": "resnest_down4_batchnorm0_fwd", 
      "attrs": {
        "axis": "1", 
        "eps": "1e-05", 
        "fix_gamma": "False", 
        "momentum": "0.9", 
        "use_global_stats": "False"
      }, 
      "inputs": [[739, 0, 0], [740, 0, 0], [741, 0, 0], [742, 0, 1], [743, 0, 1]]
    }, 
    {
      "op": "elemwise_add", 
      "name": "resnest_layers4_bottleneck0__plus0", 
      "inputs": [[736, 0, 0], [744, 0, 0]]
    }, 
    {
      "op": "Activation", 
      "name": "resnest_layers4_relu3_fwd", 
      "attrs": {"act_type": "relu"}, 
      "inputs": [[745, 0, 0]]
    }, 
    {
      "op": "null", 
      "name": "resnest_layers4_conv5_weight", 
      "attrs": {
        "__dtype__": "0", 
        "__lr_mult__": "1.0", 
        "__shape__": "(512, 2048, 1, 1)", 
        "__storage_type__": "0", 
        "__wd_mult__": "1.0"
      }, 
      "inputs": []
    }, 
    {
      "op": "Convolution", 
      "name": "resnest_layers4_conv5_fwd", 
      "attrs": {
        "dilate": "(1, 1)", 
        "kernel": "(1, 1)", 
        "layout": "NCHW", 
        "no_bias": "True", 
        "num_filter": "512", 
        "num_group": "1", 
        "pad": "(0, 0)", 
        "stride": "(1, 1)"
      }, 
      "inputs": [[746, 0, 0], [747, 0, 0]]
    }, 
    {
      "op": "null", 
      "name": "resnest_layers4_batchnorm4_gamma", 
      "attrs": {
        "__dtype__": "0", 
        "__init__": "ones", 
        "__lr_mult__": "1.0", 
        "__shape__": "(512,)", 
        "__storage_type__": "0", 
        "__wd_mult__": "1.0"
      }, 
      "inputs": []
    }, 
    {
      "op": "null", 
      "name": "resnest_layers4_batchnorm4_beta", 
      "attrs": {
        "__dtype__": "0", 
        "__init__": "zeros", 
        "__lr_mult__": "1.0", 
        "__shape__": "(512,)", 
        "__storage_type__": "0", 
        "__wd_mult__": "1.0"
      }, 
      "inputs": []
    }, 
    {
      "op": "null", 
      "name": "resnest_layers4_batchnorm4_running_mean", 
      "attrs": {
        "__dtype__": "0", 
        "__init__": "zeros", 
        "__lr_mult__": "1.0", 
        "__shape__": "(512,)", 
        "__storage_type__": "0", 
        "__wd_mult__": "1.0"
      }, 
      "inputs": []
    }, 
    {
      "op": "null", 
      "name": "resnest_layers4_batchnorm4_running_var", 
      "attrs": {
        "__dtype__": "0", 
        "__init__": "ones", 
        "__lr_mult__": "1.0", 
        "__shape__": "(512,)", 
        "__storage_type__": "0", 
        "__wd_mult__": "1.0"
      }, 
      "inputs": []
    }, 
    {
      "op": "BatchNorm", 
      "name": "resnest_layers4_batchnorm4_fwd", 
      "attrs": {
        "axis": "1", 
        "eps": "1e-05", 
        "fix_gamma": "False", 
        "momentum": "0.9", 
        "use_global_stats": "False"
      }, 
      "inputs": [[748, 0, 0], [749, 0, 0], [750, 0, 0], [751, 0, 1], [752, 0, 1]]
    }, 
    {
      "op": "Activation", 
      "name": "resnest_layers4_relu4_fwd", 
      "attrs": {"act_type": "relu"}, 
      "inputs": [[753, 0, 0]]
    }, 
    {
      "op": "null", 
      "name": "resnest_layers4_conv6_weight", 
      "attrs": {
        "__dtype__": "0", 
        "__lr_mult__": "1.0", 
        "__shape__": "(1024, 256, 3, 3)", 
        "__storage_type__": "0", 
        "__wd_mult__": "1.0"
      }, 
      "inputs": []
    }, 
    {
      "op": "Convolution", 
      "name": "resnest_layers4_conv6_fwd", 
      "attrs": {
        "dilate": "(1, 1)", 
        "kernel": "(3, 3)", 
        "layout": "NCHW", 
        "no_bias": "True", 
        "num_filter": "1024", 
        "num_group": "2", 
        "pad": "(1, 1)", 
        "stride": "(1, 1)"
      }, 
      "inputs": [[754, 0, 0], [755, 0, 0]]
    }, 
    {
      "op": "null", 
      "name": "resnest_layers4_batchnorm5_gamma", 
      "attrs": {
        "__dtype__": "0", 
        "__init__": "ones", 
        "__lr_mult__": "1.0", 
        "__shape__": "(1024,)", 
        "__storage_type__": "0", 
        "__wd_mult__": "1.0"
      }, 
      "inputs": []
    }, 
    {
      "op": "null", 
      "name": "resnest_layers4_batchnorm5_beta", 
      "attrs": {
        "__dtype__": "0", 
        "__init__": "zeros", 
        "__lr_mult__": "1.0", 
        "__shape__": "(1024,)", 
        "__storage_type__": "0", 
        "__wd_mult__": "1.0"
      }, 
      "inputs": []
    }, 
    {
      "op": "null", 
      "name": "resnest_layers4_batchnorm5_running_mean", 
      "attrs": {
        "__dtype__": "0", 
        "__init__": "zeros", 
        "__lr_mult__": "1.0", 
        "__shape__": "(1024,)", 
        "__storage_type__": "0", 
        "__wd_mult__": "1.0"
      }, 
      "inputs": []
    }, 
    {
      "op": "null", 
      "name": "resnest_layers4_batchnorm5_running_var", 
      "attrs": {
        "__dtype__": "0", 
        "__init__": "ones", 
        "__lr_mult__": "1.0", 
        "__shape__": "(1024,)", 
        "__storage_type__": "0", 
        "__wd_mult__": "1.0"
      }, 
      "inputs": []
    }, 
    {
      "op": "BatchNorm", 
      "name": "resnest_layers4_batchnorm5_fwd", 
      "attrs": {
        "axis": "1", 
        "eps": "1e-05", 
        "fix_gamma": "False", 
        "momentum": "0.9", 
        "use_global_stats": "False"
      }, 
      "inputs": [[756, 0, 0], [757, 0, 0], [758, 0, 0], [759, 0, 1], [760, 0, 1]]
    }, 
    {
      "op": "Activation", 
      "name": "resnest_layers4_relu5_fwd", 
      "attrs": {"act_type": "relu"}, 
      "inputs": [[761, 0, 0]]
    }, 
    {
      "op": "SliceChannel", 
      "name": "resnest_layers4_splitattentionconv1_split0", 
      "attrs": {
        "axis": "1", 
        "num_outputs": "2"
      }, 
      "inputs": [[762, 0, 0]]
    }, 
    {
      "op": "_plus_scalar", 
      "name": "resnest_layers4_splitattentionconv1__plusscalar0", 
      "attrs": {"scalar": "0"}, 
      "inputs": [[763, 0, 0]]
    }, 
    {
      "op": "elemwise_add", 
      "name": "resnest_layers4_splitattentionconv1__plus0", 
      "inputs": [[764, 0, 0], [763, 1, 0]]
    }, 
    {
      "op": "_contrib_AdaptiveAvgPooling2D", 
      "name": "resnest_layers4_splitattentionconv1_adaptiveavgpooling2d0", 
      "attrs": {"output_size": "1"}, 
      "inputs": [[765, 0, 0]]
    }, 
    {
      "op": "null", 
      "name": "resnest_layers4_conv7_weight", 
      "attrs": {
        "__dtype__": "0", 
        "__lr_mult__": "1.0", 
        "__shape__": "(256, 512, 1, 1)", 
        "__storage_type__": "0", 
        "__wd_mult__": "1.0"
      }, 
      "inputs": []
    }, 
    {
      "op": "null", 
      "name": "resnest_layers4_conv7_bias", 
      "attrs": {
        "__dtype__": "0", 
        "__init__": "zeros", 
        "__lr_mult__": "1.0", 
        "__shape__": "(256,)", 
        "__storage_type__": "0", 
        "__wd_mult__": "1.0"
      }, 
      "inputs": []
    }, 
    {
      "op": "Convolution", 
      "name": "resnest_layers4_conv7_fwd", 
      "attrs": {
        "dilate": "(1, 1)", 
        "kernel": "(1, 1)", 
        "layout": "NCHW", 
        "no_bias": "False", 
        "num_filter": "256", 
        "num_group": "1", 
        "pad": "(0, 0)", 
        "stride": "(1, 1)"
      }, 
      "inputs": [[766, 0, 0], [767, 0, 0], [768, 0, 0]]
    }, 
    {
      "op": "null", 
      "name": "resnest_layers4_batchnorm6_gamma", 
      "attrs": {
        "__dtype__": "0", 
        "__init__": "ones", 
        "__lr_mult__": "1.0", 
        "__shape__": "(256,)", 
        "__storage_type__": "0", 
        "__wd_mult__": "1.0"
      }, 
      "inputs": []
    }, 
    {
      "op": "null", 
      "name": "resnest_layers4_batchnorm6_beta", 
      "attrs": {
        "__dtype__": "0", 
        "__init__": "zeros", 
        "__lr_mult__": "1.0", 
        "__shape__": "(256,)", 
        "__storage_type__": "0", 
        "__wd_mult__": "1.0"
      }, 
      "inputs": []
    }, 
    {
      "op": "null", 
      "name": "resnest_layers4_batchnorm6_running_mean", 
      "attrs": {
        "__dtype__": "0", 
        "__init__": "zeros", 
        "__lr_mult__": "1.0", 
        "__shape__": "(256,)", 
        "__storage_type__": "0", 
        "__wd_mult__": "1.0"
      }, 
      "inputs": []
    }, 
    {
      "op": "null", 
      "name": "resnest_layers4_batchnorm6_running_var", 
      "attrs": {
        "__dtype__": "0", 
        "__init__": "ones", 
        "__lr_mult__": "1.0", 
        "__shape__": "(256,)", 
        "__storage_type__": "0", 
        "__wd_mult__": "1.0"
      }, 
      "inputs": []
    }, 
    {
      "op": "BatchNorm", 
      "name": "resnest_layers4_batchnorm6_fwd", 
      "attrs": {
        "axis": "1", 
        "eps": "1e-05", 
        "fix_gamma": "False", 
        "momentum": "0.9", 
        "use_global_stats": "False"
      }, 
      "inputs": [[769, 0, 0], [770, 0, 0], [771, 0, 0], [772, 0, 1], [773, 0, 1]]
    }, 
    {
      "op": "Activation", 
      "name": "resnest_layers4_relu6_fwd", 
      "attrs": {"act_type": "relu"}, 
      "inputs": [[774, 0, 0]]
    }, 
    {
      "op": "null", 
      "name": "resnest_layers4_conv8_weight", 
      "attrs": {
        "__dtype__": "0", 
        "__lr_mult__": "1.0", 
        "__shape__": "(1024, 256, 1, 1)", 
        "__storage_type__": "0", 
        "__wd_mult__": "1.0"
      }, 
      "inputs": []
    }, 
    {
      "op": "null", 
      "name": "resnest_layers4_conv8_bias", 
      "attrs": {
        "__dtype__": "0", 
        "__init__": "zeros", 
        "__lr_mult__": "1.0", 
        "__shape__": "(1024,)", 
        "__storage_type__": "0", 
        "__wd_mult__": "1.0"
      }, 
      "inputs": []
    }, 
    {
      "op": "Convolution", 
      "name": "resnest_layers4_conv8_fwd", 
      "attrs": {
        "dilate": "(1, 1)", 
        "kernel": "(1, 1)", 
        "layout": "NCHW", 
        "no_bias": "False", 
        "num_filter": "1024", 
        "num_group": "1", 
        "pad": "(0, 0)", 
        "stride": "(1, 1)"
      }, 
      "inputs": [[775, 0, 0], [776, 0, 0], [777, 0, 0]]
    }, 
    {
      "op": "Reshape", 
      "name": "resnest_layers4_splitattentionconv1_reshape0", 
      "attrs": {"shape": "(0, 2, 512)"}, 
      "inputs": [[778, 0, 0]]
    }, 
    {
      "op": "softmax", 
      "name": "resnest_layers4_splitattentionconv1_softmax0", 
      "attrs": {"axis": "1"}, 
      "inputs": [[779, 0, 0]]
    }, 
    {
      "op": "Reshape", 
      "name": "resnest_layers4_splitattentionconv1_reshape1", 
      "attrs": {"shape": "(0, -1, 1, 1)"}, 
      "inputs": [[780, 0, 0]]
    }, 
    {
      "op": "SliceChannel", 
      "name": "resnest_layers4_splitattentionconv1_split1", 
      "attrs": {
        "axis": "1", 
        "num_outputs": "2"
      }, 
      "inputs": [[781, 0, 0]]
    }, 
    {
      "op": "broadcast_mul", 
      "name": "resnest_layers4_splitattentionconv1_broadcast_mul0", 
      "inputs": [[782, 0, 0], [763, 0, 0]]
    }, 
    {
      "op": "_plus_scalar", 
      "name": "resnest_layers4_splitattentionconv1__plusscalar1", 
      "attrs": {"scalar": "0"}, 
      "inputs": [[783, 0, 0]]
    }, 
    {
      "op": "broadcast_mul", 
      "name": "resnest_layers4_splitattentionconv1_broadcast_mul1", 
      "inputs": [[782, 1, 0], [763, 1, 0]]
    }, 
    {
      "op": "elemwise_add", 
      "name": "resnest_layers4_splitattentionconv1__plus1", 
      "inputs": [[784, 0, 0], [785, 0, 0]]
    }, 
    {
      "op": "null", 
      "name": "resnest_layers4_conv9_weight", 
      "attrs": {
        "__dtype__": "0", 
        "__lr_mult__": "1.0", 
        "__shape__": "(2048, 512, 1, 1)", 
        "__storage_type__": "0", 
        "__wd_mult__": "1.0"
      }, 
      "inputs": []
    }, 
    {
      "op": "Convolution", 
      "name": "resnest_layers4_conv9_fwd", 
      "attrs": {
        "dilate": "(1, 1)", 
        "kernel": "(1, 1)", 
        "layout": "NCHW", 
        "no_bias": "True", 
        "num_filter": "2048", 
        "num_group": "1", 
        "pad": "(0, 0)", 
        "stride": "(1, 1)"
      }, 
      "inputs": [[786, 0, 0], [787, 0, 0]]
    }, 
    {
      "op": "null", 
      "name": "resnest_layers4_batchnorm7_gamma", 
      "attrs": {
        "__dtype__": "0", 
        "__init__": "ones", 
        "__lr_mult__": "1.0", 
        "__shape__": "(2048,)", 
        "__storage_type__": "0", 
        "__wd_mult__": "1.0"
      }, 
      "inputs": []
    }, 
    {
      "op": "null", 
      "name": "resnest_layers4_batchnorm7_beta", 
      "attrs": {
        "__dtype__": "0", 
        "__init__": "zeros", 
        "__lr_mult__": "1.0", 
        "__shape__": "(2048,)", 
        "__storage_type__": "0", 
        "__wd_mult__": "1.0"
      }, 
      "inputs": []
    }, 
    {
      "op": "null", 
      "name": "resnest_layers4_batchnorm7_running_mean", 
      "attrs": {
        "__dtype__": "0", 
        "__init__": "zeros", 
        "__lr_mult__": "1.0", 
        "__shape__": "(2048,)", 
        "__storage_type__": "0", 
        "__wd_mult__": "1.0"
      }, 
      "inputs": []
    }, 
    {
      "op": "null", 
      "name": "resnest_layers4_batchnorm7_running_var", 
      "attrs": {
        "__dtype__": "0", 
        "__init__": "ones", 
        "__lr_mult__": "1.0", 
        "__shape__": "(2048,)", 
        "__storage_type__": "0", 
        "__wd_mult__": "1.0"
      }, 
      "inputs": []
    }, 
    {
      "op": "BatchNorm", 
      "name": "resnest_layers4_batchnorm7_fwd", 
      "attrs": {
        "axis": "1", 
        "eps": "1e-05", 
        "fix_gamma": "False", 
        "momentum": "0.9", 
        "use_global_stats": "False"
      }, 
      "inputs": [[788, 0, 0], [789, 0, 0], [790, 0, 0], [791, 0, 1], [792, 0, 1]]
    }, 
    {
      "op": "elemwise_add", 
      "name": "resnest_layers4_bottleneck1__plus0", 
      "inputs": [[793, 0, 0], [746, 0, 0]]
    }, 
    {
      "op": "Activation", 
      "name": "resnest_layers4_relu7_fwd", 
      "attrs": {"act_type": "relu"}, 
      "inputs": [[794, 0, 0]]
    }, 
    {
      "op": "null", 
      "name": "resnest_layers4_conv10_weight", 
      "attrs": {
        "__dtype__": "0", 
        "__lr_mult__": "1.0", 
        "__shape__": "(512, 2048, 1, 1)", 
        "__storage_type__": "0", 
        "__wd_mult__": "1.0"
      }, 
      "inputs": []
    }, 
    {
      "op": "Convolution", 
      "name": "resnest_layers4_conv10_fwd", 
      "attrs": {
        "dilate": "(1, 1)", 
        "kernel": "(1, 1)", 
        "layout": "NCHW", 
        "no_bias": "True", 
        "num_filter": "512", 
        "num_group": "1", 
        "pad": "(0, 0)", 
        "stride": "(1, 1)"
      }, 
      "inputs": [[795, 0, 0], [796, 0, 0]]
    }, 
    {
      "op": "null", 
      "name": "resnest_layers4_batchnorm8_gamma", 
      "attrs": {
        "__dtype__": "0", 
        "__init__": "ones", 
        "__lr_mult__": "1.0", 
        "__shape__": "(512,)", 
        "__storage_type__": "0", 
        "__wd_mult__": "1.0"
      }, 
      "inputs": []
    }, 
    {
      "op": "null", 
      "name": "resnest_layers4_batchnorm8_beta", 
      "attrs": {
        "__dtype__": "0", 
        "__init__": "zeros", 
        "__lr_mult__": "1.0", 
        "__shape__": "(512,)", 
        "__storage_type__": "0", 
        "__wd_mult__": "1.0"
      }, 
      "inputs": []
    }, 
    {
      "op": "null", 
      "name": "resnest_layers4_batchnorm8_running_mean", 
      "attrs": {
        "__dtype__": "0", 
        "__init__": "zeros", 
        "__lr_mult__": "1.0", 
        "__shape__": "(512,)", 
        "__storage_type__": "0", 
        "__wd_mult__": "1.0"
      }, 
      "inputs": []
    }, 
    {
      "op": "null", 
      "name": "resnest_layers4_batchnorm8_running_var", 
      "attrs": {
        "__dtype__": "0", 
        "__init__": "ones", 
        "__lr_mult__": "1.0", 
        "__shape__": "(512,)", 
        "__storage_type__": "0", 
        "__wd_mult__": "1.0"
      }, 
      "inputs": []
    }, 
    {
      "op": "BatchNorm", 
      "name": "resnest_layers4_batchnorm8_fwd", 
      "attrs": {
        "axis": "1", 
        "eps": "1e-05", 
        "fix_gamma": "False", 
        "momentum": "0.9", 
        "use_global_stats": "False"
      }, 
      "inputs": [[797, 0, 0], [798, 0, 0], [799, 0, 0], [800, 0, 1], [801, 0, 1]]
    }, 
    {
      "op": "Activation", 
      "name": "resnest_layers4_relu8_fwd", 
      "attrs": {"act_type": "relu"}, 
      "inputs": [[802, 0, 0]]
    }, 
    {
      "op": "null", 
      "name": "resnest_layers4_conv11_weight", 
      "attrs": {
        "__dtype__": "0", 
        "__lr_mult__": "1.0", 
        "__shape__": "(1024, 256, 3, 3)", 
        "__storage_type__": "0", 
        "__wd_mult__": "1.0"
      }, 
      "inputs": []
    }, 
    {
      "op": "Convolution", 
      "name": "resnest_layers4_conv11_fwd", 
      "attrs": {
        "dilate": "(1, 1)", 
        "kernel": "(3, 3)", 
        "layout": "NCHW", 
        "no_bias": "True", 
        "num_filter": "1024", 
        "num_group": "2", 
        "pad": "(1, 1)", 
        "stride": "(1, 1)"
      }, 
      "inputs": [[803, 0, 0], [804, 0, 0]]
    }, 
    {
      "op": "null", 
      "name": "resnest_layers4_batchnorm9_gamma", 
      "attrs": {
        "__dtype__": "0", 
        "__init__": "ones", 
        "__lr_mult__": "1.0", 
        "__shape__": "(1024,)", 
        "__storage_type__": "0", 
        "__wd_mult__": "1.0"
      }, 
      "inputs": []
    }, 
    {
      "op": "null", 
      "name": "resnest_layers4_batchnorm9_beta", 
      "attrs": {
        "__dtype__": "0", 
        "__init__": "zeros", 
        "__lr_mult__": "1.0", 
        "__shape__": "(1024,)", 
        "__storage_type__": "0", 
        "__wd_mult__": "1.0"
      }, 
      "inputs": []
    }, 
    {
      "op": "null", 
      "name": "resnest_layers4_batchnorm9_running_mean", 
      "attrs": {
        "__dtype__": "0", 
        "__init__": "zeros", 
        "__lr_mult__": "1.0", 
        "__shape__": "(1024,)", 
        "__storage_type__": "0", 
        "__wd_mult__": "1.0"
      }, 
      "inputs": []
    }, 
    {
      "op": "null", 
      "name": "resnest_layers4_batchnorm9_running_var", 
      "attrs": {
        "__dtype__": "0", 
        "__init__": "ones", 
        "__lr_mult__": "1.0", 
        "__shape__": "(1024,)", 
        "__storage_type__": "0", 
        "__wd_mult__": "1.0"
      }, 
      "inputs": []
    }, 
    {
      "op": "BatchNorm", 
      "name": "resnest_layers4_batchnorm9_fwd", 
      "attrs": {
        "axis": "1", 
        "eps": "1e-05", 
        "fix_gamma": "False", 
        "momentum": "0.9", 
        "use_global_stats": "False"
      }, 
      "inputs": [[805, 0, 0], [806, 0, 0], [807, 0, 0], [808, 0, 1], [809, 0, 1]]
    }, 
    {
      "op": "Activation", 
      "name": "resnest_layers4_relu9_fwd", 
      "attrs": {"act_type": "relu"}, 
      "inputs": [[810, 0, 0]]
    }, 
    {
      "op": "SliceChannel", 
      "name": "resnest_layers4_splitattentionconv2_split0", 
      "attrs": {
        "axis": "1", 
        "num_outputs": "2"
      }, 
      "inputs": [[811, 0, 0]]
    }, 
    {
      "op": "_plus_scalar", 
      "name": "resnest_layers4_splitattentionconv2__plusscalar0", 
      "attrs": {"scalar": "0"}, 
      "inputs": [[812, 0, 0]]
    }, 
    {
      "op": "elemwise_add", 
      "name": "resnest_layers4_splitattentionconv2__plus0", 
      "inputs": [[813, 0, 0], [812, 1, 0]]
    }, 
    {
      "op": "_contrib_AdaptiveAvgPooling2D", 
      "name": "resnest_layers4_splitattentionconv2_adaptiveavgpooling2d0", 
      "attrs": {"output_size": "1"}, 
      "inputs": [[814, 0, 0]]
    }, 
    {
      "op": "null", 
      "name": "resnest_layers4_conv12_weight", 
      "attrs": {
        "__dtype__": "0", 
        "__lr_mult__": "1.0", 
        "__shape__": "(256, 512, 1, 1)", 
        "__storage_type__": "0", 
        "__wd_mult__": "1.0"
      }, 
      "inputs": []
    }, 
    {
      "op": "null", 
      "name": "resnest_layers4_conv12_bias", 
      "attrs": {
        "__dtype__": "0", 
        "__init__": "zeros", 
        "__lr_mult__": "1.0", 
        "__shape__": "(256,)", 
        "__storage_type__": "0", 
        "__wd_mult__": "1.0"
      }, 
      "inputs": []
    }, 
    {
      "op": "Convolution", 
      "name": "resnest_layers4_conv12_fwd", 
      "attrs": {
        "dilate": "(1, 1)", 
        "kernel": "(1, 1)", 
        "layout": "NCHW", 
        "no_bias": "False", 
        "num_filter": "256", 
        "num_group": "1", 
        "pad": "(0, 0)", 
        "stride": "(1, 1)"
      }, 
      "inputs": [[815, 0, 0], [816, 0, 0], [817, 0, 0]]
    }, 
    {
      "op": "null", 
      "name": "resnest_layers4_batchnorm10_gamma", 
      "attrs": {
        "__dtype__": "0", 
        "__init__": "ones", 
        "__lr_mult__": "1.0", 
        "__shape__": "(256,)", 
        "__storage_type__": "0", 
        "__wd_mult__": "1.0"
      }, 
      "inputs": []
    }, 
    {
      "op": "null", 
      "name": "resnest_layers4_batchnorm10_beta", 
      "attrs": {
        "__dtype__": "0", 
        "__init__": "zeros", 
        "__lr_mult__": "1.0", 
        "__shape__": "(256,)", 
        "__storage_type__": "0", 
        "__wd_mult__": "1.0"
      }, 
      "inputs": []
    }, 
    {
      "op": "null", 
      "name": "resnest_layers4_batchnorm10_running_mean", 
      "attrs": {
        "__dtype__": "0", 
        "__init__": "zeros", 
        "__lr_mult__": "1.0", 
        "__shape__": "(256,)", 
        "__storage_type__": "0", 
        "__wd_mult__": "1.0"
      }, 
      "inputs": []
    }, 
    {
      "op": "null", 
      "name": "resnest_layers4_batchnorm10_running_var", 
      "attrs": {
        "__dtype__": "0", 
        "__init__": "ones", 
        "__lr_mult__": "1.0", 
        "__shape__": "(256,)", 
        "__storage_type__": "0", 
        "__wd_mult__": "1.0"
      }, 
      "inputs": []
    }, 
    {
      "op": "BatchNorm", 
      "name": "resnest_layers4_batchnorm10_fwd", 
      "attrs": {
        "axis": "1", 
        "eps": "1e-05", 
        "fix_gamma": "False", 
        "momentum": "0.9", 
        "use_global_stats": "False"
      }, 
      "inputs": [[818, 0, 0], [819, 0, 0], [820, 0, 0], [821, 0, 1], [822, 0, 1]]
    }, 
    {
      "op": "Activation", 
      "name": "resnest_layers4_relu10_fwd", 
      "attrs": {"act_type": "relu"}, 
      "inputs": [[823, 0, 0]]
    }, 
    {
      "op": "null", 
      "name": "resnest_layers4_conv13_weight", 
      "attrs": {
        "__dtype__": "0", 
        "__lr_mult__": "1.0", 
        "__shape__": "(1024, 256, 1, 1)", 
        "__storage_type__": "0", 
        "__wd_mult__": "1.0"
      }, 
      "inputs": []
    }, 
    {
      "op": "null", 
      "name": "resnest_layers4_conv13_bias", 
      "attrs": {
        "__dtype__": "0", 
        "__init__": "zeros", 
        "__lr_mult__": "1.0", 
        "__shape__": "(1024,)", 
        "__storage_type__": "0", 
        "__wd_mult__": "1.0"
      }, 
      "inputs": []
    }, 
    {
      "op": "Convolution", 
      "name": "resnest_layers4_conv13_fwd", 
      "attrs": {
        "dilate": "(1, 1)", 
        "kernel": "(1, 1)", 
        "layout": "NCHW", 
        "no_bias": "False", 
        "num_filter": "1024", 
        "num_group": "1", 
        "pad": "(0, 0)", 
        "stride": "(1, 1)"
      }, 
      "inputs": [[824, 0, 0], [825, 0, 0], [826, 0, 0]]
    }, 
    {
      "op": "Reshape", 
      "name": "resnest_layers4_splitattentionconv2_reshape0", 
      "attrs": {"shape": "(0, 2, 512)"}, 
      "inputs": [[827, 0, 0]]
    }, 
    {
      "op": "softmax", 
      "name": "resnest_layers4_splitattentionconv2_softmax0", 
      "attrs": {"axis": "1"}, 
      "inputs": [[828, 0, 0]]
    }, 
    {
      "op": "Reshape", 
      "name": "resnest_layers4_splitattentionconv2_reshape1", 
      "attrs": {"shape": "(0, -1, 1, 1)"}, 
      "inputs": [[829, 0, 0]]
    }, 
    {
      "op": "SliceChannel", 
      "name": "resnest_layers4_splitattentionconv2_split1", 
      "attrs": {
        "axis": "1", 
        "num_outputs": "2"
      }, 
      "inputs": [[830, 0, 0]]
    }, 
    {
      "op": "broadcast_mul", 
      "name": "resnest_layers4_splitattentionconv2_broadcast_mul0", 
      "inputs": [[831, 0, 0], [812, 0, 0]]
    }, 
    {
      "op": "_plus_scalar", 
      "name": "resnest_layers4_splitattentionconv2__plusscalar1", 
      "attrs": {"scalar": "0"}, 
      "inputs": [[832, 0, 0]]
    }, 
    {
      "op": "broadcast_mul", 
      "name": "resnest_layers4_splitattentionconv2_broadcast_mul1", 
      "inputs": [[831, 1, 0], [812, 1, 0]]
    }, 
    {
      "op": "elemwise_add", 
      "name": "resnest_layers4_splitattentionconv2__plus1", 
      "inputs": [[833, 0, 0], [834, 0, 0]]
    }, 
    {
      "op": "null", 
      "name": "resnest_layers4_conv14_weight", 
      "attrs": {
        "__dtype__": "0", 
        "__lr_mult__": "1.0", 
        "__shape__": "(2048, 512, 1, 1)", 
        "__storage_type__": "0", 
        "__wd_mult__": "1.0"
      }, 
      "inputs": []
    }, 
    {
      "op": "Convolution", 
      "name": "resnest_layers4_conv14_fwd", 
      "attrs": {
        "dilate": "(1, 1)", 
        "kernel": "(1, 1)", 
        "layout": "NCHW", 
        "no_bias": "True", 
        "num_filter": "2048", 
        "num_group": "1", 
        "pad": "(0, 0)", 
        "stride": "(1, 1)"
      }, 
      "inputs": [[835, 0, 0], [836, 0, 0]]
    }, 
    {
      "op": "null", 
      "name": "resnest_layers4_batchnorm11_gamma", 
      "attrs": {
        "__dtype__": "0", 
        "__init__": "ones", 
        "__lr_mult__": "1.0", 
        "__shape__": "(2048,)", 
        "__storage_type__": "0", 
        "__wd_mult__": "1.0"
      }, 
      "inputs": []
    }, 
    {
      "op": "null", 
      "name": "resnest_layers4_batchnorm11_beta", 
      "attrs": {
        "__dtype__": "0", 
        "__init__": "zeros", 
        "__lr_mult__": "1.0", 
        "__shape__": "(2048,)", 
        "__storage_type__": "0", 
        "__wd_mult__": "1.0"
      }, 
      "inputs": []
    }, 
    {
      "op": "null", 
      "name": "resnest_layers4_batchnorm11_running_mean", 
      "attrs": {
        "__dtype__": "0", 
        "__init__": "zeros", 
        "__lr_mult__": "1.0", 
        "__shape__": "(2048,)", 
        "__storage_type__": "0", 
        "__wd_mult__": "1.0"
      }, 
      "inputs": []
    }, 
    {
      "op": "null", 
      "name": "resnest_layers4_batchnorm11_running_var", 
      "attrs": {
        "__dtype__": "0", 
        "__init__": "ones", 
        "__lr_mult__": "1.0", 
        "__shape__": "(2048,)", 
        "__storage_type__": "0", 
        "__wd_mult__": "1.0"
      }, 
      "inputs": []
    }, 
    {
      "op": "BatchNorm", 
      "name": "resnest_layers4_batchnorm11_fwd", 
      "attrs": {
        "axis": "1", 
        "eps": "1e-05", 
        "fix_gamma": "False", 
        "momentum": "0.9", 
        "use_global_stats": "False"
      }, 
      "inputs": [[837, 0, 0], [838, 0, 0], [839, 0, 0], [840, 0, 1], [841, 0, 1]]
    }, 
    {
      "op": "elemwise_add", 
      "name": "resnest_layers4_bottleneck2__plus0", 
      "inputs": [[842, 0, 0], [795, 0, 0]]
    }, 
    {
      "op": "Activation", 
      "name": "resnest_layers4_relu11_fwd", 
      "attrs": {"act_type": "relu"}, 
      "inputs": [[843, 0, 0]]
    }, 
    {
      "op": "Pooling", 
      "name": "resnest_pool1_fwd", 
      "attrs": {
        "global_pool": "True", 
        "kernel": "(1, 1)", 
        "layout": "NCHW", 
        "pad": "(0, 0)", 
        "pool_type": "avg", 
        "pooling_convention": "full", 
        "stride": "(1, 1)"
      }, 
      "inputs": [[844, 0, 0]]
    }, 
    {
      "op": "Flatten", 
      "name": "resnest_flatten0_flatten0", 
      "inputs": [[845, 0, 0]]
    }, 
    {
      "op": "null", 
      "name": "resnest_dense0_weight", 
      "attrs": {
        "__dtype__": "0", 
        "__lr_mult__": "1.0", 
        "__shape__": "(1000, 2048)", 
        "__storage_type__": "0", 
        "__wd_mult__": "1.0"
      }, 
      "inputs": []
    }, 
    {
      "op": "null", 
      "name": "resnest_dense0_bias", 
      "attrs": {
        "__dtype__": "0", 
        "__init__": "zeros", 
        "__lr_mult__": "1.0", 
        "__shape__": "(1000,)", 
        "__storage_type__": "0", 
        "__wd_mult__": "1.0"
      }, 
      "inputs": []
    }, 
    {
      "op": "FullyConnected", 
      "name": "resnest_dense0_fwd", 
      "attrs": {
        "flatten": "True", 
        "no_bias": "False", 
        "num_hidden": "1000"
      }, 
      "inputs": [[846, 0, 0], [847, 0, 0], [848, 0, 0]]
    }
  ], 
  "arg_nodes": [
    0, 
    1, 
    3, 
    4, 
    5, 
    6, 
    9, 
    11, 
    12, 
    13, 
    14, 
    17, 
    19, 
    20, 
    21, 
    22, 
    26, 
    28, 
    29, 
    30, 
    31, 
    34, 
    36, 
    37, 
    38, 
    39, 
    46, 
    47, 
    49, 
    50, 
    51, 
    52, 
    55, 
    56, 
    66, 
    68, 
    69, 
    70, 
    71, 
    74, 
    76, 
    77, 
    78, 
    79, 
    83, 
    85, 
    86, 
    87, 
    88, 
    91, 
    93, 
    94, 
    95, 
    96, 
    103, 
    104, 
    106, 
    107, 
    108, 
    109, 
    112, 
    113, 
    123, 
    125, 
    126, 
    127, 
    128, 
    132, 
    134, 
    135, 
    136, 
    137, 
    140, 
    142, 
    143, 
    144, 
    145, 
    152, 
    153, 
    155, 
    156, 
    157, 
    158, 
    161, 
    162, 
    172, 
    174, 
    175, 
    176, 
    177, 
    181, 
    183, 
    184, 
    185, 
    186, 
    189, 
    191, 
    192, 
    193, 
    194, 
    201, 
    202, 
    204, 
    205, 
    206, 
    207, 
    210, 
    211, 
    222, 
    224, 
    225, 
    226, 
    227, 
    230, 
    232, 
    233, 
    234, 
    235, 
    239, 
    241, 
    242, 
    243, 
    244, 
    247, 
    249, 
    250, 
    251, 
    252, 
    259, 
    260, 
    262, 
    263, 
    264, 
    265, 
    268, 
    269, 
    279, 
    281, 
    282, 
    283, 
    284, 
    288, 
    290, 
    291, 
    292, 
    293, 
    296, 
    298, 
    299, 
    300, 
    301, 
    308, 
    309, 
    311, 
    312, 
    313, 
    314, 
    317, 
    318, 
    328, 
    330, 
    331, 
    332, 
    333, 
    337, 
    339, 
    340, 
    341, 
    342, 
    345, 
    347, 
    348, 
    349, 
    350, 
    357, 
    358, 
    360, 
    361, 
    362, 
    363, 
    366, 
    367, 
    377, 
    379, 
    380, 
    381, 
    382, 
    386, 
    388, 
    389, 
    390, 
    391, 
    394, 
    396, 
    397, 
    398, 
    399, 
    406, 
    407, 
    409, 
    410, 
    411, 
    412, 
    415, 
    416, 
    427, 
    429, 
    430, 
    431, 
    432, 
    435, 
    437, 
    438, 
    439, 
    440, 
    444, 
    446, 
    447, 
    448, 
    449, 
    452, 
    454, 
    455, 
    456, 
    457, 
    464, 
    465, 
    467, 
    468, 
    469, 
    470, 
    473, 
    474, 
    484, 
    486, 
    487, 
    488, 
    489, 
    493, 
    495, 
    496, 
    497, 
    498, 
    501, 
    503, 
    504, 
    505, 
    506, 
    513, 
    514, 
    516, 
    517, 
    518, 
    519, 
    522, 
    523, 
    533, 
    535, 
    536, 
    537, 
    538, 
    542, 
    544, 
    545, 
    546, 
    547, 
    550, 
    552, 
    553, 
    554, 
    555, 
    562, 
    563, 
    565, 
    566, 
    567, 
    568, 
    571, 
    572, 
    582, 
    584, 
    585, 
    586, 
    587, 
    591, 
    593, 
    594, 
    595, 
    596, 
    599, 
    601, 
    602, 
    603, 
    604, 
    611, 
    612, 
    614, 
    615, 
    616, 
    617, 
    620, 
    621, 
    631, 
    633, 
    634, 
    635, 
    636, 
    640, 
    642, 
    643, 
    644, 
    645, 
    648, 
    650, 
    651, 
    652, 
    653, 
    660, 
    661, 
    663, 
    664, 
    665, 
    666, 
    669, 
    670, 
    680, 
    682, 
    683, 
    684, 
    685, 
    689, 
    691, 
    692, 
    693, 
    694, 
    697, 
    699, 
    700, 
    701, 
    702, 
    709, 
    710, 
    712, 
    713, 
    714, 
    715, 
    718, 
    719, 
    730, 
    732, 
    733, 
    734, 
    735, 
    738, 
    740, 
    741, 
    742, 
    743, 
    747, 
    749, 
    750, 
    751, 
    752, 
    755, 
    757, 
    758, 
    759, 
    760, 
    767, 
    768, 
    770, 
    771, 
    772, 
    773, 
    776, 
    777, 
    787, 
    789, 
    790, 
    791, 
    792, 
    796, 
    798, 
    799, 
    800, 
    801, 
    804, 
    806, 
    807, 
    808, 
    809, 
    816, 
    817, 
    819, 
    820, 
    821, 
    822, 
    825, 
    826, 
    836, 
    838, 
    839, 
    840, 
    841, 
    847, 
    848
  ], 
  "node_row_ptr": [
    0, 
    1, 
    2, 
    3, 
    4, 
    5, 
    6, 
    7, 
    10, 
    11, 
    12, 
    13, 
    14, 
    15, 
    16, 
    17, 
    20, 
    21, 
    22, 
    23, 
    24, 
    25, 
    26, 
    27, 
    30, 
    31, 
    32, 
    33, 
    34, 
    35, 
    36, 
    37, 
    38, 
    41, 
    42, 
    43, 
    44, 
    45, 
    46, 
    47, 
    48, 
    51, 
    52, 
    54, 
    55, 
    56, 
    57, 
    58, 
    59, 
    60, 
    61, 
    62, 
    63, 
    64, 
    67, 
    68, 
    69, 
    70, 
    71, 
    72, 
    73, 
    74, 
    76, 
    77, 
    78, 
    79, 
    80, 
    81, 
    82, 
    83, 
    84, 
    85, 
    86, 
    89, 
    90, 
    91, 
    92, 
    93, 
    94, 
    95, 
    96, 
    99, 
    100, 
    101, 
    102, 
    103, 
    104, 
    105, 
    106, 
    107, 
    110, 
    111, 
    112, 
    113, 
    114, 
    115, 
    116, 
    117, 
    120, 
    121, 
    123, 
    124, 
    125, 
    126, 
    127, 
    128, 
    129, 
    130, 
    131, 
    132, 
    133, 
    136, 
    137, 
    138, 
    139, 
    140, 
    141, 
    142, 
    143, 
    145, 
    146, 
    147, 
    148, 
    149, 
    150, 
    151, 
    152, 
    153, 
    154, 
    155, 
    158, 
    159, 
    160, 
    161, 
    162, 
    163, 
    164, 
    165, 
    166, 
    169, 
    170, 
    171, 
    172, 
    173, 
    174, 
    175, 
    176, 
    179, 
    180, 
    182, 
    183, 
    184, 
    185, 
    186, 
    187, 
    188, 
    189, 
    190, 
    191, 
    192, 
    195, 
    196, 
    197, 
    198, 
    199, 
    200, 
    201, 
    202, 
    204, 
    205, 
    206, 
    207, 
    208, 
    209, 
    210, 
    211, 
    212, 
    213, 
    214, 
    217, 
    218, 
    219, 
    220, 
    221, 
    222, 
    223, 
    224, 
    225, 
    228, 
    229, 
    230, 
    231, 
    232, 
    233, 
    234, 
    235, 
    238, 
    239, 
    241, 
    242, 
    243, 
    244, 
    245, 
    246, 
    247, 
    248, 
    249, 
    250, 
    251, 
    254, 
    255, 
    256, 
    257, 
    258, 
    259, 
    260, 
    261, 
    263, 
    264, 
    265, 
    266, 
    267, 
    268, 
    269, 
    270, 
    271, 
    272, 
    273, 
    274, 
    277, 
    278, 
    279, 
    280, 
    281, 
    282, 
    283, 
    284, 
    287, 
    288, 
    289, 
    290, 
    291, 
    292, 
    293, 
    294, 
    295, 
    298, 
    299, 
    300, 
    301, 
    302, 
    303, 
    304, 
    305, 
    308, 
    309, 
    311, 
    312, 
    313, 
    314, 
    315, 
    316, 
    317, 
    318, 
    319, 
    320, 
    321, 
    324, 
    325, 
    326, 
    327, 
    328, 
    329, 
    330, 
    331, 
    333, 
    334, 
    335, 
    336, 
    337, 
    338, 
    339, 
    340, 
    341, 
    342, 
    343, 
    346, 
    347, 
    348, 
    349, 
    350, 
    351, 
    352, 
    353, 
    354, 
    357, 
    358, 
    359, 
    360, 
    361, 
    362, 
    363, 
    364, 
    367, 
    368, 
    370, 
    371, 
    372, 
    373, 
    374, 
    375, 
    376, 
    377, 
    378, 
    379, 
    380, 
    383, 
    384, 
    385, 
    386, 
    387, 
    388, 
    389, 
    390, 
    392, 
    393, 
    394, 
    395, 
    396, 
    397, 
    398, 
    399, 
    400, 
    401, 
    402, 
    405, 
    406, 
    407, 
    408, 
    409, 
    410, 
    411, 
    412, 
    413, 
    416, 
    417, 
    418, 
    419, 
    420, 
    421, 
    422, 
    423, 
    426, 
    427, 
    429, 
    430, 
    431, 
    432, 
    433, 
    434, 
    435, 
    436, 
    437, 
    438, 
    439, 
    442, 
    443, 
    444, 
    445, 
    446, 
    447, 
    448, 
    449, 
    451, 
    452, 
    453, 
    454, 
    455, 
    456, 
    457, 
    458, 
    459, 
    460, 
    461, 
    464, 
    465, 
    466, 
    467, 
    468, 
    469, 
    470, 
    471, 
    472, 
    475, 
    476, 
    477, 
    478, 
    479, 
    480, 
    481, 
    482, 
    485, 
    486, 
    488, 
    489, 
    490, 
    491, 
    492, 
    493, 
    494, 
    495, 
    496, 
    497, 
    498, 
    501, 
    502, 
    503, 
    504, 
    505, 
    506, 
    507, 
    508, 
    510, 
    511, 
    512, 
    513, 
    514, 
    515, 
    516, 
    517, 
    518, 
    519, 
    520, 
    521, 
    524, 
    525, 
    526, 
    527, 
    528, 
    529, 
    530, 
    531, 
    534, 
    535, 
    536, 
    537, 
    538, 
    539, 
    540, 
    541, 
    542, 
    545, 
    546, 
    547, 
    548, 
    549, 
    550, 
    551, 
    552, 
    555, 
    556, 
    558, 
    559, 
    560, 
    561, 
    562, 
    563, 
    564, 
    565, 
    566, 
    567, 
    568, 
    571, 
    572, 
    573, 
    574, 
    575, 
    576, 
    577, 
    578, 
    580, 
    581, 
    582, 
    583, 
    584, 
    585, 
    586, 
    587, 
    588, 
    589, 
    590, 
    593, 
    594, 
    595, 
    596, 
    597, 
    598, 
    599, 
    600, 
    601, 
    604, 
    605, 
    606, 
    607, 
    608, 
    609, 
    610, 
    611, 
    614, 
    615, 
    617, 
    618, 
    619, 
    620, 
    621, 
    622, 
    623, 
    624, 
    625, 
    626, 
    627, 
    630, 
    631, 
    632, 
    633, 
    634, 
    635, 
    636, 
    637, 
    639, 
    640, 
    641, 
    642, 
    643, 
    644, 
    645, 
    646, 
    647, 
    648, 
    649, 
    652, 
    653, 
    654, 
    655, 
    656, 
    657, 
    658, 
    659, 
    660, 
    663, 
    664, 
    665, 
    666, 
    667, 
    668, 
    669, 
    670, 
    673, 
    674, 
    676, 
    677, 
    678, 
    679, 
    680, 
    681, 
    682, 
    683, 
    684, 
    685, 
    686, 
    689, 
    690, 
    691, 
    692, 
    693, 
    694, 
    695, 
    696, 
    698, 
    699, 
    700, 
    701, 
    702, 
    703, 
    704, 
    705, 
    706, 
    707, 
    708, 
    711, 
    712, 
    713, 
    714, 
    715, 
    716, 
    717, 
    718, 
    719, 
    722, 
    723, 
    724, 
    725, 
    726, 
    727, 
    728, 
    729, 
    732, 
    733, 
    735, 
    736, 
    737, 
    738, 
    739, 
    740, 
    741, 
    742, 
    743, 
    744, 
    745, 
    748, 
    749, 
    750, 
    751, 
    752, 
    753, 
    754, 
    755, 
    757, 
    758, 
    759, 
    760, 
    761, 
    762, 
    763, 
    764, 
    765, 
    766, 
    767, 
    770, 
    771, 
    772, 
    773, 
    774, 
    775, 
    776, 
    777, 
    778, 
    781, 
    782, 
    783, 
    784, 
    785, 
    786, 
    787, 
    788, 
    791, 
    792, 
    794, 
    795, 
    796, 
    797, 
    798, 
    799, 
    800, 
    801, 
    802, 
    803, 
    804, 
    807, 
    808, 
    809, 
    810, 
    811, 
    812, 
    813, 
    814, 
    816, 
    817, 
    818, 
    819, 
    820, 
    821, 
    822, 
    823, 
    824, 
    825, 
    826, 
    829, 
    830, 
    831, 
    832, 
    833, 
    834, 
    835, 
    836, 
    837, 
    840, 
    841, 
    842, 
    843, 
    844, 
    845, 
    846, 
    847, 
    850, 
    851, 
    853, 
    854, 
    855, 
    856, 
    857, 
    858, 
    859, 
    860, 
    861, 
    862, 
    863, 
    866, 
    867, 
    868, 
    869, 
    870, 
    871, 
    872, 
    873, 
    875, 
    876, 
    877, 
    878, 
    879, 
    880, 
    881, 
    882, 
    883, 
    884, 
    885, 
    886, 
    889, 
    890, 
    891, 
    892, 
    893, 
    894, 
    895, 
    896, 
    899, 
    900, 
    901, 
    902, 
    903, 
    904, 
    905, 
    906, 
    907, 
    910, 
    911, 
    912, 
    913, 
    914, 
    915, 
    916, 
    917, 
    920, 
    921, 
    923, 
    924, 
    925, 
    926, 
    927, 
    928, 
    929, 
    930, 
    931, 
    932, 
    933, 
    936, 
    937, 
    938, 
    939, 
    940, 
    941, 
    942, 
    943, 
    945, 
    946, 
    947, 
    948, 
    949, 
    950, 
    951, 
    952, 
    953, 
    954, 
    955, 
    958, 
    959, 
    960, 
    961, 
    962, 
    963, 
    964, 
    965, 
    966, 
    969, 
    970, 
    971, 
    972, 
    973, 
    974, 
    975, 
    976, 
    979, 
    980, 
    982, 
    983, 
    984, 
    985, 
    986, 
    987, 
    988, 
    989, 
    990, 
    991, 
    992, 
    995, 
    996, 
    997, 
    998, 
    999, 
    1000, 
    1001, 
    1002, 
    1004, 
    1005, 
    1006, 
    1007, 
    1008, 
    1009, 
    1010, 
    1011, 
    1012, 
    1013, 
    1014, 
    1017, 
    1018, 
    1019, 
    1020, 
    1021, 
    1022, 
    1023, 
    1024
  ], 
  "heads": [[849, 0, 0]], 
  "attrs": {"mxnet_version": ["int", 10600]}
}